nets/example_nets/breastcancer_0.pt (torch_old, 15273 bytes, 6 tensors)

weight f4 [15, 30]
0	0x3b38b0c0	0.0028181523
1	0xbe093716	-0.1339992
2	0xbddf8083	-0.109131835
3	0x3cde2e48	0.027121678
4	0xbdadda9c	-0.08488962
5	0x3ddb893c	0.10719535
6	0xbd8d8334	-0.06909791
7	0xbe14117d	-0.14459796
8	0xbd67e158	-0.05661139
9	0x3e0e23da	0.13880864
10	0x3d851992	0.06499018
11	0xbd819736	-0.06327669
12	0x3ddd2bd8	0.10799378
13	0xbbc959c0	-0.0061447322
14	0x3ddd2b28	0.10799247
15	0x3d84bba0	0.06481099
16	0x3dc925d4	0.09821668
17	0xbc9799b0	-0.018505901
18	0x3c1de010	0.00963594
19	0x3e3743dc	0.1789698
20	0x3ca91db0	0.020644039
21	0xbd8455e8	-0.06461698
22	0xbe0986f6	-0.1343039
23	0x3de07254	0.10959306
24	0xbe206802	-0.15664676
25	0x3dc6fd98	0.09716338
26	0x3e1fe056	0.15612921
27	0xbcf96610	-0.030444175
28	0xbd1e9e40	-0.038725138
29	0x3e20f032	0.15716627
30	0x403f68c5	2.9907696
31	0xbf5cc777	-0.8624186
32	0x4112ef68	9.183449
33	0x403767d5	2.8657124
34	0xbe16a4a2	-0.1471124
35	0xbe9c02e2	-0.3047095
36	0xbe8c9bcb	-0.2746261
37	0xbdd46a7a	-0.10371871
38	0x3c49d9d7	0.0123200035
39	0xbe31a5df	-0.17348431
40	0x3e56f2cb	0.20991056
41	0x3e1c0da9	0.15239586
42	0xbedb9327	-0.42885706
43	0xbe33b255	-0.17548497
44	0x3e1352db	0.14387076
45	0xbdd0a5da	-0.10187884
46	0xbe60f76a	-0.21969381
47	0xbdc8e57f	-0.09809398
48	0xbd70008e	-0.05859428
49	0xbd275672	-0.040853925
50	0x4043406e	3.0508075
51	0xc0d38724	-6.6102467
52	0x400be107	2.1856096
53	0xc01e33d1	-2.4719126
54	0x3c40dd0f	0.0117714545
55	0xbf5b5aad	-0.85685235
56	0xbf82cc17	-1.0218533
57	0xbeb04818	-0.34430003
58	0xbd13961d	-0.03603183
59	0xbe123d2a	-0.14281145
60	0xbffa518d	-1.9556137
61	0x400b8a19	2.1803038
62	0xc0e44775	-7.133723
63	0x41390665	11.564061
64	0xbe1a7665	-0.15084226
65	0x3e690bb8	0.22758377
66	0x3e9e95b9	0.30973604
67	0x3c86f634	0.01647482
68	0x3dedee84	0.11617759
69	0xbbfa3ff9	-0.0076370207
70	0xbe225ff8	-0.15856922
71	0xbcd8f3d3	-0.026483452
72	0x3f0228cb	0.50843495
73	0x408bca0a	4.368413
74	0x3d2448fd	0.04010867
75	0xbd7616c3	-0.0600803
76	0xbc902180	-0.017594099
77	0xbd390c8f	-0.045177992
78	0x3e3cd038	0.18438804
79	0x3cf0e795	0.029407302
80	0xc0115cf7	-2.2712991
81	0x403ea900	2.979065
82	0xc096cf14	-4.712778
83	0xc103253c	-8.19659
84	0x3dc737dc	0.09727451
85	0x3ed9443f	0.4243488
86	0x3ecf76cc	0.40520322
87	0xbd98aa2a	-0.07454331
88	0xbe1895e7	-0.14900933
89	0xbde61a90	-0.11235535
90	0x401841e0	2.3790207
91	0xbf5c5fba	-0.8608357
92	0x4107f51a	8.497339
93	0x401d9f66	2.462854
94	0xbd126d15	-0.03574856
95	0xbe9c43fb	-0.30520615
96	0xbe86ad10	-0.2630391
97	0xbe9764d3	-0.2956911
98	0x3c1573fa	0.009121889
99	0xbd48587e	-0.048912518
100	0xbda047c8	-0.07826191
101	0x3e40a4dd	0.1881289
102	0xbeb0fd34	-0.3456818
103	0x3e008f7c	0.12554735
104	0xbd2d86f4	-0.04236503
105	0x3a70270f	0.00091610936
106	0xbb3029c2	-0.0026880358
107	0x3d2286f4	0.039679483
108	0xbe3fb3da	-0.18720952
109	0x3e296f72	0.1654642
110	0x4028fa7a	2.6402879
111	0xc0b6873b	-5.7040076
112	0x40005b61	2.0055773
113	0xc0065538	-2.0989513
114	0x3defe66e	0.11713873
115	0xbf4a4192	-0.790063
116	0xbf6684b7	-0.90046257
117	0xbe966491	-0.293736
118	0xbeb78abe	-0.3584804
119	0xbe0a66cb	-0.13515775
120	0xbed7f104	-0.42176068
121	0x3e08e365	0.13367994
122	0xbfeaf4f0	-1.8355999
123	0xbf1334de	-0.57502544
124	0x3d4e2e24	0.050336972
125	0x3e1219f1	0.14267708
126	0x3d0e69d5	0.034768898
127	0x3dabd48a	0.08390148
128	0xbd053019	-0.032516573
129	0x3e305c68	0.1722275
130	0x3dfbecb3	0.12301006
131	0x3d1ae40f	0.03781515
132	0xbd842271	-0.06451882
133	0x3d292e84	0.041304126
134	0x3e092846	0.1339427
135	0x3e34a112	0.17639568
136	0x3db293bd	0.08719585
137	0x3e07c674	0.13259298
138	0x3e3d37a8	0.18478262
139	0x3b3f48aa	0.0029187598
140	0xbf3c70b1	-0.73609453
141	0x3f9cb4dc	1.2242694
142	0xbeca76f5	-0.39543882
143	0x3f2f0d61	0.6837979
144	0x3da6f53d	0.08152244
145	0x3e922d31	0.28550103
146	0x3ccc58ad	0.024944628
147	0x3dc08074	0.093995005
148	0x3c6333ec	0.01386736
149	0x3b900f37	0.004396345
150	0xbf32ce14	-0.698457
151	0x3e560193	0.20899038
152	0xc00d9039	-2.2119277
153	0xbf61936b	-0.88115567
154	0x3cb3b5e5	0.02193732
155	0x3e0a22f6	0.13489899
156	0x3c3920d2	0.011299329
157	0x3dd07da7	0.10180216
158	0x3cbea600	0.023272514
159	0x3e25ff7d	0.16210742
160	0xbde94f42	-0.1139207
161	0xbe185264	-0.1487518
162	0x3e09fd86	0.13475618
163	0x3e6e8cc4	0.23295885
164	0x3d0f8581	0.03503943
165	0x3df078c8	0.11741787
166	0xbdd309e2	-0.10304619
167	0x3dbf0d10	0.09328663
168	0x3e3781b4	0.17920572
169	0x3db0f7ea	0.08641036
170	0xbf16ddd2	-0.5893222
171	0x3faa7246	1.3316123
172	0xbf55676d	-0.8336094
173	0x3f601067	0.8752503
174	0x3dad531f	0.0846312
175	0x3e4b4fa2	0.19854596
176	0x3e84d683	0.2594491
177	0x3dad68a2	0.08467223
178	0x3e0e6d2a	0.1390883
179	0xbc53804d	-0.012909007
180	0x3d802dd2	0.062587395
181	0x3e2e64c8	0.17030632
182	0x3db5d028	0.08877593
183	0xbe2b1242	-0.16706184
184	0xbd8b3c12	-0.06798567
185	0xbdf614fe	-0.12015723
186	0xbc6d5120	-0.014484674
187	0xbd37b110	-0.044846594
188	0xbdfb8063	-0.12280347
189	0x3d0c4564	0.034245864
190	0x3cb5cf80	0.02219367
191	0xbdb1efca	-0.08688314
192	0xbd3e1a50	-0.046411812
193	0x3de6287c	0.112381905
194	0x3dcf3610	0.101177335
195	0xbd4baffc	-0.04972838
196	0x3de096b0	0.10966241
197	0x3d253358	0.04033217
198	0x3dd4b0ec	0.10385308
199	0xbd35520c	-0.0442677
200	0xbbf1ae60	-0.0073755234
201	0xbdff415a	-0.12463637
202	0xbe0ae3ae	-0.13563415
203	0xbb873b00	-0.0041269064
204	0xbe15a328	-0.1461302
205	0xbe2a7895	-0.16647561
206	0xbd787700	-0.060660362
207	0xbe0d55be	-0.1380224
208	0x3e10bc40	0.14134312
209	0x3deff600	0.11716843
210	0xbd0f2adc	-0.034952983
211	0xbdcea73b	-0.100904904
212	0xbd65fa88	-0.05614713
213	0x3e181c8e	0.14854643
214	0xbc0a2f90	-0.008434191
215	0xbd9cd34c	-0.07657489
216	0x3dd2a404	0.1028519
217	0x3c75d840	0.015005171
218	0xbdedfe91	-0.1162082
219	0x3cd0de68	0.025496677
220	0xbc00c680	-0.007859826
221	0xbc4b98c0	-0.012426555
222	0x3ce54a18	0.027989432
223	0xbe189dd3	-0.14903955
224	0x3d61a97c	0.055093274
225	0x3e122eac	0.14275616
226	0x3e0687a2	0.13137677
227	0x3b87c9c0	0.0041439235
228	0x3c10dc50	0.008841589
229	0xbdf502a1	-0.11963392
230	0x3b628ec0	0.003456995
231	0xbdbad92e	-0.09123455
232	0xbdd8fdd4	-0.10595289
233	0xbdf17659	-0.11790151
234	0xbe36e0a1	-0.17859127
235	0x3df4ac30	0.11946905
236	0x3ceda628	0.029009894
237	0x3d0260b0	0.03183049
238	0xbda067e7	-0.07832318
239	0xbdf8885a	-0.12135382
240	0x40097f58	2.1483974
241	0xbf404088	-0.75098467
242	0x40f8406e	7.757865
243	0x400fc854	2.246602
244	0xbdbdcc6a	-0.092675045
245	0xbd2d69cf	-0.042337235
246	0xbe3a8e19	-0.18218268
247	0x3d82b6c0	0.06382513
248	0xbdb4d6c4	-0.08830026
249	0x3e0d348f	0.13789581
250	0x3d03bec7	0.03216436
251	0x3e076375	0.13221534
252	0xbea28ace	-0.31746525
253	0x3ce2844e	0.027650978
254	0x3e00d6cf	0.12581943
255	0x3dd1df87	0.102477126

bias f4 [15]
0	0xbe3172aa	-0.17328897
1	0xbeba1d27	-0.36350366
2	0xbe4ebba2	-0.20188764
3	0xbedab498	-0.42715907
4	0x3df924fc	0.12165257
5	0x3e863a9f	0.262166
6	0xbbcf0c60	-0.006318614
7	0xbe1429f6	-0.14469132
8	0xbe98f7c4	-0.2987653
9	0xbd864a9e	-0.06557201
10	0xbe124be3	-0.14286761
11	0xbe1a7708	-0.1508447
12	0xbe034c23	-0.12822013
13	0xbdb13a8d	-0.08653746
14	0xbedb33d3	-0.42812976

weight f4 [15, 15]
0	0xbe6a9ae0	-0.22910643
1	0xbcee363d	-0.029078597
2	0x3ba4d199	0.005029869
3	0xbe6a2935	-0.22867282
4	0xbc7e287a	-0.01551258
5	0xbb285c70	-0.0025689863
6	0xbc336470	-0.010949239
7	0xbd249d48	-0.040189058
8	0x3e16e84a	0.14737049
9	0x3a987d00	0.0011633933
10	0x3d620990	0.0551849
11	0xbe0f50b5	-0.13995631
12	0xbd9c86d6	-0.076429054
13	0x3e2e244e	0.17006037
14	0x3c2d9310	0.010594144
15	0x3daf6c78	0.08565611
16	0xbcd903bb	-0.026491037
17	0x3e104d8d	0.14092083
18	0xbe337eea	-0.17528883
19	0x3e092f7b	0.13397019
20	0x3e67299f	0.22574471
21	0x3d332e28	0.04374519
22	0x3e727698	0.23678052
23	0xbd1fb436	-0.038990222
24	0xbe1c4c90	-0.15263581
25	0x3de2fc48	0.11083275
26	0xbe76a46f	-0.24086164
27	0xbd06761c	-0.03282748
28	0xbbcada40	-0.006190568
29	0xbcd9dc31	-0.026594253
30	0x3e08a0c4	0.13342577
31	0xbf24a9c9	-0.6432157
32	0x3f810b2e	1.0081537
33	0xbe225f59	-0.15856685
34	0x3e65042f	0.22364877
35	0x3e80a2a3	0.25124082
36	0xbe54422e	-0.2072837
37	0xbe221a9d	-0.15830465
38	0xbe088476	-0.1333178
39	0x3dfba43c	0.122871846
40	0xbd514c2c	-0.051098034
41	0x3e318e4c	0.17339438
42	0xbc872a30	-0.016499609
43	0x3e23104e	0.15924188
44	0xbf4527ce	-0.7701386
45	0xbe76c3fd	-0.24098201
46	0x3efe43c3	0.49661073
47	0xbfb84f5b	-1.4399217
48	0x3f020e75	0.5080331
49	0x3d4c9f8f	0.049956854
50	0x3c110173	0.008850443
51	0xbd8715ac	-0.065959305
52	0xbde09980	-0.10966778
53	0x3ee2b148	0.4427588
54	0xbe22d122	-0.1590009
55	0x3e16dad0	0.14731908
56	0xbd60d240	-0.05488801
57	0x3e771a82	0.24131206
58	0xbe705e80	-0.23473549
59	0x3f293847	0.661015
60	0xbdfc6ea2	-0.12325789
61	0xbda87548	-0.082254946
62	0xbe6bc01e	-0.23022506
63	0xbe635492	-0.2220023
64	0xbe0d4e5c	-0.13799423
65	0x3e298442	0.16554359
66	0xbe5ea7a6	-0.2174364
67	0xbdaa3066	-0.083100125
68	0xbe7ae97a	-0.24503127
69	0xbd9d5f7c	-0.07684228
70	0x3e6ed5a0	0.23323679
71	0x3e52aa5e	0.20572802
72	0xbe3f6bfe	-0.1869354
73	0x3e52ce3a	0.20586482
74	0x3e818a51	0.2530084
75	0x3e76b84c	0.24093741
76	0xbe2b4311	-0.16724803
77	0xbe75b495	-0.23994668
78	0xbe4070ec	-0.18793076
79	0x3dfc1810	0.12309277
80	0xbe5cf0bc	-0.21576208
81	0xbe33461e	-0.17507216
82	0x3e691cb2	0.22764853
83	0xbdd33b24	-0.103140146
84	0x3e500e24	0.20317894
85	0x3e341dce	0.17589495
86	0xbe1dea9a	-0.15421525
87	0x3e265de6	0.16246757
88	0xbe0a52a8	-0.13508093
89	0x3e2eef02	0.17083362
90	0xbd4db290	-0.05021912
91	0xbdf9740e	-0.12180339
92	0xbdb60f30	-0.088896155
93	0x3e448d50	0.19194531
94	0xbe29a706	-0.1656762
95	0xbd65b770	-0.056083143
96	0x3e0f0c3c	0.13969511
97	0xbd89f4bc	-0.067361325
98	0x3e5e71f6	0.2172316
99	0xbe224010	-0.1584475
100	0xbe01f8a8	-0.12692511
101	0x3e840bc7	0.25790235
102	0x3df6f684	0.12058738
103	0x3d688588	0.05676797
104	0xbe793494	-0.24336463
105	0xbe730450	-0.23732114
106	0xbe85209f	-0.2600145
107	0x3e8c4be2	0.27401644
108	0x3deb2db0	0.114833236
109	0x3e89a544	0.268839
110	0x3e84198f	0.2580075
111	0xbe1dc76e	-0.15408108
112	0x3e3ab1f0	0.1823194
113	0xbe8b9b5d	-0.2726697
114	0x3d0d4d58	0.03449759
115	0xbde67196	-0.112521335
116	0x3de70dc4	0.112819225
117	0x3e544906	0.20730981
118	0xbce0c708	-0.027438655
119	0xbd346583	-0.04404212
120	0x3e369154	0.17828876
121	0xbedeeb4d	-0.43538895
122	0x3f8283a9	1.019643
123	0xbefede33	-0.497789
124	0x3d92a85b	0.071610175
125	0x3ed4b654	0.41545355
126	0xbdc008c8	-0.09376675
127	0x3e4cc9d0	0.1999886
128	0xbe81fd0e	-0.25388378
129	0xbe58e24a	-0.21180072
130	0xbdc32c22	-0.09529902
131	0xbda8959a	-0.08231659
132	0x3d3da308	0.046298057
133	0x3c722560	0.014779419
134	0xbf3b99d4	-0.732816
135	0xbe2b8794	-0.16750938
136	0x3ee22ed8	0.44176364
137	0xbffe02a6	-1.9844558
138	0x3f4ef675	0.80844814
139	0xbd1b852e	-0.037968807
140	0x3e12f548	0.1435138
141	0x3d74aba8	0.059734017
142	0xbdd7d090	-0.10537827
143	0x3f4db46f	0.80353445
144	0x3e7116bc	0.23543829
145	0xbdc1e5bc	-0.094676465
146	0xbd813370	-0.06308639
147	0x3e077d88	0.1323148
148	0xbe10c46a	-0.14137426
149	0x3f93b6ad	1.1540123
150	0xbe5c7ef1	-0.215328
151	0x3f4ce6bb	0.80039567
152	0xc0051165	-2.0791867
153	0x3f0d3e53	0.55173224
154	0x3d4845c1	0.048894648
155	0x3e4cf23c	0.2001428
156	0x3e36e614	0.17861205
157	0x3e5b4770	0.2141397
158	0x3f3ff978	0.74990034
159	0x3cb46d70	0.02202484
160	0xbdc7a378	-0.09747976
161	0xbe3f5957	-0.18686424
162	0xbe1f0ae4	-0.15531498
163	0x3da2a8fc	0.079423875
164	0x3f867bf3	1.0506576
165	0x3e5fe1d6	0.21863493
166	0xbdf7ac52	-0.12093414
167	0xbde150f0	-0.11001766
168	0xbd562c68	-0.052288443
169	0x3dea9546	0.11454253
170	0x3da68ed5	0.08132712
171	0xbd14e6ac	-0.0363528
172	0x3da64504	0.081186324
173	0x3d9c6420	0.07636285
174	0xbd9a38e2	-0.07530381
175	0x3e42c100	0.19018936
176	0x3e2c7c62	0.16844323
177	0x3e4c97a2	0.19979718
178	0x3e7b0bfe	0.24516293
179	0x3ca6e290	0.020371705
180	0x3dc2f130	0.09518659
181	0x3e17f8a4	0.14840943
182	0x3e71af62	0.2360206
183	0xbe088b55	-0.13334401
184	0x3df47613	0.11936583
185	0xbe389279	-0.18024625
186	0xbde76168	-0.11297876
187	0xbe5723ec	-0.21009797
188	0xbce15f10	-0.02751115
189	0x3e640666	0.22268066
190	0xbd9555f2	-0.072917834
191	0xbd7ae13c	-0.061249956
192	0x3e2ffce0	0.17186308
193	0xbe557f78	-0.20849407
194	0xbd78a5c0	-0.060704947
195	0x3e1581aa	0.14600244
196	0xbf4f416a	-0.8095919
197	0x3fd5d9e4	1.670712
198	0xbf0f57e0	-0.5599346
199	0x3ef7e76b	0.48418745
200	0x3f3091e6	0.68972623
201	0x3e228bea	0.15873685
202	0xbe34e3cd	-0.17665024
203	0xbe8869d1	-0.26643232
204	0xbe199504	-0.14998251
205	0x3e828d81	0.25498584
206	0x3db5531c	0.088537425
207	0xbbca9780	-0.006182611
208	0xbb10a380	-0.002207011
209	0xbf9c5b14	-1.2215295
210	0x3d130a08	0.03589824
211	0xbb83cd30	-0.004022263
212	0xbbbec1f7	-0.0058214623
213	0x3d9230e6	0.07138233
214	0x3d5d71a4	0.054063454
215	0xbdae23fc	-0.08502957
216	0x3c925e20	0.017867148
217	0xbe278b18	-0.16361654
218	0x3dcd55ab	0.100261055
219	0xbe2b6048	-0.16735947
220	0xbe669f02	-0.22521594
221	0x3b93fe00	0.004516363
222	0x3e5bb796	0.21456751
223	0x3e72a6b4	0.23696405
224	0xbcc90390	-0.024537832

bias f4 [15]
0	0xbd225732	-0.039633937
1	0x3e1524c6	0.14564809
2	0x3faecd9e	1.3656499
3	0xbce4219d	-0.02784806
4	0xbe512e4c	-0.20427817
5	0xbe70af53	-0.23504381
6	0xbcbf25d8	-0.023333475
7	0x3e8619c4	0.26191533
8	0x3fb8bbc0	1.4432297
9	0xbd83edce	-0.06441842
10	0xbdeab1e9	-0.11459715
11	0xbd9978a1	-0.07493711
12	0xbe7789e6	-0.24173698
13	0x400d0d26	2.2039275
14	0xbde06077	-0.10955899

weight f4 [2, 15]
0	0xbe486da9	-0.19573082
1	0x3dbd2132	0.09234847
2	0xbef2fb0b	-0.47457156
3	0x3e82bba5	0.25533786
4	0x3e4acbf6	0.19804367
5	0xbe580ce8	-0.21098673
6	0xbe344206	-0.17603311
7	0xbddd8eea	-0.10818274
8	0xbe5beaa3	-0.21476226
9	0x3f29c16a	0.6631075
10	0x3f218020	0.6308613
11	0x3e7390e6	0.23785743
12	0xbe03d8fd	-0.12875743
13	0xbf0758fa	-0.5287014
14	0xbe54b78c	-0.20773143
15	0x3e6e5a87	0.23276721
16	0x3e5159c6	0.20444402
17	0x3e477fe0	0.19482374
18	0xbf1a147f	-0.60187525
19	0x3de65e74	0.11248484
20	0x3e0f7f08	0.14013302
21	0x3e4e701c	0.20159954
22	0x3d97f6c9	0.074201174
23	0x3efeaf39	0.4974306
24	0xbf2efd6e	-0.68355453
25	0xbf23394e	-0.63759315
26	0x3e6858f5	0.22690184
27	0x3ce45e55	0.027877012
28	0x3f1aeffa	0.60522425
29	0xbc5c664f	-0.013452127

bias f4 [2]
0	0xbf361f55	-0.7114156
1	0x3f2a325c	0.6648309
