nets/example_nets/breastcancer_0_pgd.pt (torch_old, 15273 bytes, 6 tensors)

weight f4 [15, 30]
00000000: a5d9 6e3f f6f9 d33f 6df6 ad40 059c 2540
00000010: d2bd b73d 785d d13d db16 963d 1ec0 9c3d
00000020: a54c ad3d d4ac c53d 3b94 8d3d 8ec3 b43d
00000030: 4258 6b3d 1540 ecbf 06ec 4d3d f334 473d
00000040: fb44 d23d 5eef 6a3d 5dde 2f3d e705 683d
00000050: fbb4 583f de64 1040 bea5 a940 2189 64c0
00000060: 1103 853d 755b 9f3d c230 c23d 208b 6b3d
00000070: 2f27 5d3d deda 5a3d ece1 b93d 83a5 143f
00000080: c5a4 efbf 02ff c53f ff77 0a3f 7157 073f
00000090: eab7 013f b7ab f43e 271a 083f 8ec1 073f
000000a0: 160b 063f 2d0c ec3e 3524 ff3e bc15 e23f
000000b0: 0638 df3e 0d0a f23e 5282 183f 9faf 083f
000000c0: e6d5 0c3f 1ad5 fa3e dd96 44be 0335 213f
000000d0: 42f7 fbbf 05e6 8abf 495c 023f 8820 e03e
000000e0: bfd0 093f a1d1 f93e 3735 fc3e 0a3e 123f
000000f0: 64ff 103e f400 e13d 0d75 1cbe c715 0dbe
00000100: 7c33 2b3e bc7b 2ebe 94c5 173e dc67 923d
00000110: 18d1 9a3d 72e9 a3bd b83e fd3d 375f 26be
00000120: 387d f6bd ccbb 1c3d 7855 31be c4bd 153e
00000130: c827 edbd c4f3 99bd e087 f73b ec34 39bd
00000140: 7057 abbc bab6 383e 7b0b d0bd 4098 3ebb
00000150: c6bf 163e 44ea 413d e027 553c 482e 65bd
00000160: 42a7 063e 9ad0 0c3e c465 9e3f c6a0 21bf
00000170: 0b9d 0341 dd51 8fbf abcd 1dbf 3512 00bf
00000180: 690a e9be f6cb 02bf c3de bcbe e144 ebbe
00000190: 50e3 d1be 751c 10bf 1610 01bf a24b 0dc0
000001a0: dfbd ebbe 3820 0fbf 1f02 26bf 361f 0bbf
000001b0: 90d6 f9be c39b bebe 372c d23f c48e 06c0
000001c0: d4f2 c240 8e53 38bf c72b fabe 10b6 24bf
000001d0: 566a 5bbf 352f 15bf c920 febe 2810 01bf
000001e0: 83a7 8abe 41c8 8fbe 478d 47bc bd46 7e3e
000001f0: 87da 29bf 2096 e7be 4902 2cbf 236d 27bf
00000200: c040 00bf 7a66 ffbe 8b8a 18bf 07df e0be
00000210: 084d 1abf 67da 0bbe b314 2abf 0d0d 15bf
00000220: c7d8 20bf 29da 14bf c3cc 01bf 02a8 2abf
00000230: 4002 a4be d6cc 92be 0b0c 4fbd ffb1 5ebd
00000240: 00bb 11bf 01c2 00bf 803a 2abf f6b6 28bf
00000250: bd99 19bf 1927 2bbf ca58 283e 7808 82bc
00000260: b337 d1bd 62b5 023e 3864 d3bd 908d 713d
00000270: 4401 5cbd f087 2ebe 6ebe 0d3e 741f 35be
00000280: 6dfc cbbd 7000 a6bc 3c1b 13be 7879 273d
00000290: 01ef a0bd c068 f83b 6700 80bd dcef 5f3d
000002a0: f8ab e33c f0cb 5c3c e806 f83c 9ba0 97bd
000002b0: 34e9 8d3d 4b68 28be 1d36 b1bd e0a5 a53d
000002c0: e8c3 1b3d 0034 123a 5023 aebc 401f 563d
000002d0: 12d7 163d fc2f a53c 1fda 11be 88f7 b9bd
000002e0: aaec 67bd 58ff ca3d a39c 39bd abd7 b3bc
000002f0: 880d e23d 79c4 42bd c506 01be 84c6 dcbc
00000300: 9dce c7bd 534d 38be eb64 eabd 70e9 1a3d
00000310: dbe2 383e 31a3 91bd 9036 1d3e 0c7a 393e
00000320: 10de b9bd 30f6 89bc f44e 933d d369 903d
00000330: 8596 f5bd 352d 2b3e 0dfb 50bd 4e3f c13d
00000340: 28b3 2abe ecdd 823d e26d 60bd 3301 c7be
00000350: 0049 fcbf 4dd4 0bc1 1ce9 553e 1047 633e
00000360: d116 253e 0ba5 583e e33c 3e3e 5861 353e
00000370: f6e2 2d3e 227a 4a3e b62c 143e c6af 48bd
00000380: 01be 303e 9668 403e 79d2 613e 9f44 3a3e
00000390: 2c24 3d3e 0a17 6c3e 4202 34bd 00b7 78be
000003a0: b023 c1bf 3c80 c340 bf8f 363e 2973 573e
000003b0: 9051 5c3e b711 333e 9382 5b3e b29c 4e3e
000003c0: 7eb3 be3f 7cfe 273f 9dd2 a63f d5e9 643e
000003d0: 9701 0140 83c0 0240 0260 0440 5da2 0640
000003e0: 2848 0440 725c 0240 79a5 f63f 3759 ee3f
000003f0: 753e df3f 09df 10bf 636c fc3f c394 0040
0.9330085 1.6560657 5.4363313 2.5876477 0.08971752 0.10222906 0.07328578 0.07653831
0.084618844 0.09652105 0.06913038 0.088263616 0.057457216 -1.8457056 0.050273918 0.04863448
0.10267063 0.057357185 0.04293667 0.056646254 0.84651154 2.2561564 5.301482 -3.5708697
0.064947255 0.07781116 0.09481956 0.057505727 0.053992447 0.053431384 0.09076294 0.5806505
-1.8722159 1.5468447 0.5408935 0.528678 0.50671256 0.47787258 0.53164905 0.53029716
0.52360666 0.4610304 0.4983231 1.7662883 0.4359743 0.47273293 0.59573853 0.53392977
0.55013883 0.4899071 -0.19198175 0.62971514 -1.9684832 -1.0851446 0.50922066 0.4377482
0.53834146 0.48792747 0.4925935 0.57125914 0.14159924 0.1098651 -0.15279026 -0.13777839
0.16718858 -0.17039388 0.14821464 0.07148716 0.07559413 -0.080035105 0.12365478 -0.16247259
-0.12035602 0.038265035 -0.1731776 0.14623171 -0.11579853 -0.07517198 0.0075540394 -0.045216486
-0.020915717 0.18038455 -0.1015844 -0.0029082447 0.14721593 0.047342554 0.013009995 -0.05595234
0.13149741 0.1375145 1.2374806 -0.63135946 8.225841 -1.1196858 -0.6164195 -0.5002778
-0.45515755 -0.5109247 -0.36888704 -0.45950988 -0.40993738 -0.5629342 -0.5041517 -2.2077413
-0.46043298 -0.55908537 -0.64846987 -0.543445 -0.4879651 -0.37228212 1.6419743 -2.1024637
6.092142 -0.72002494 -0.48861524 -0.64340305 -0.8570913 -0.5827516 -0.49634388 -0.5041528
-0.27080926 -0.2808247 -0.012179679 0.24831672 -0.6634907 -0.45231724 -0.67190987 -0.65400904
-0.500988 -0.4988287 -0.595864 -0.43920156 -0.6027379 -0.13657533 -0.66437835 -0.5822304
-0.62830776 -0.58145386 -0.50703067 -0.6666261 -0.32032967 -0.28671902 -0.050548594 -0.05436897
-0.56925964 -0.50296026 -0.66495514 -0.65904176 -0.6000021 -0.66856533 0.1644012 -0.015873179
-0.10215702 0.12764505 -0.103218496 0.058972895 -0.053712144 -0.17044044 0.13842174 -0.1768778
-0.09960256 -0.02026388 -0.14365858 0.040887326 -0.078580864 0.0075808465 -0.06250077 0.054672107
0.027791962 0.013476357 0.03027673 -0.0740368 0.069292456 -0.16446035 -0.086528994 0.08088279
0.038028628 0.00055772066 -0.021257073 0.052275896 0.0368262 0.020164482 -0.14243363 -0.09080416
-0.056622185 0.09911984 -0.045315396 -0.021953424 0.11037737 -0.047550652 -0.12600239 -0.026950128
-0.09756205 -0.17998247 -0.1144503 0.03782028 0.18055288 -0.071112044 0.15352845 0.18112963
-0.09075558 -0.016841024 0.071927935 0.07051434 -0.119916 0.16716464 -0.05102067 0.094359025
-0.16669905 0.063899845 -0.054792292 -0.38868102 -1.9709778 -8.739331 0.20889705 0.22195077
0.16121985 0.21156709 0.18577914 0.17712915 0.1698111 0.19773152 0.14470181 -0.048995756
0.1725998 0.18789896 0.22052945 0.1819024 0.1847083 0.23055664 -0.043947466 -0.24288559
-1.5089016 6.1094036 0.17828272 0.21040024 0.21515489 0.17487226 0.21436529 0.20176962
1.4898527 0.6562269 1.3033024 0.22354825 2.015722 2.043 2.0683599 2.1036599
2.066904 2.0368924 1.9269248 1.8620976 1.7440935 -0.56590325 1.9720577 2.0090797

bias f4 [15]
00000000: ca82 843f afc3 263e 2849 12be 77ce c03e
00000010: 3cae d5bd 3cfb 34be 16eb 89bd f3c6 7d3f
00000020: 6925 2abe 54aa f03c 0f9e 85bd 988f dd3d
00000030: 825d 14be 28e3 923d 1a89 32be
1.0352414 0.16285585 -0.1428572 0.3765752 -0.10433623 -0.17673963 -0.06734292 0.991317
-0.16615833 0.029378094 -0.06524288 0.10818404 -0.14488795 0.07172233 -0.17435113

weight f4 [15, 15]
00000000: be27 65be c0c5 c6bd e8c8 993d 4833 4cbe
00000010: 43e1 fabc 7426 f2bd 9915 b63d 6cfb 9ebc
00000020: a953 2d3d c46e dd3d 1cb1 1d3e 9780 7fbe
00000030: 0a50 04bd 8f10 823e ed45 d83d 5d3f d9bd
00000040: 77d8 17bd 60dc 73bc f3bd 1ebd febe 4f3c
00000050: a848 3ebe 8b34 2dbe 994e 0c3f eedc 97bb
00000060: 1a29 643e e00b ac3c 6b51 fd38 a088 77be
00000070: 16e1 5dbd 9547 263e 2455 663e dc40 9bbf
00000080: a489 953d 0524 fabf d086 a63f 9045 2d3e
00000090: c336 803d 5a6e 6fbe 1d4b 72c0 745e be3d
000000a0: c090 b3bb 5569 0640 239b 233e 66b8 383e
000000b0: 3cdb 0b3c 3567 11bf 6aaa 01bc 76cc 9abd
000000c0: 2eca b7bd 049c 10be 1ca3 9cbd f291 683d
000000d0: bd29 a23e 0b4e 813c c98f 513c 390d 38be
000000e0: ea1e 523d 68cd 35be 101c 02be 5415 2b3e
000000f0: 0adc 08bf b8d5 4d3e 8dba 823e c130 8b3e
00000100: d76a f23e 90f6 3ebe ad74 173e a999 5e3f
00000110: d6a8 88be 50bf c53d 1b05 57be 48ce e83e
00000120: 8470 483e 91e9 123e 7788 6cbe e59f 80be
00000130: 3fe3 963c 6533 15be d61b d5bc 3462 e1bd
00000140: 5cf6 ca3d 7cb4 40bd 0e03 6e3d 6399 9fbd
00000150: 3c59 2cbe 3631 18be b439 9dbd 4e96 6fbe
00000160: 1884 f43d 8265 71be 0d7f 06bd 8fdf 443e
00000170: 9ce3 e4bd d6c2 44bd 4eda 223d 3609 133e
00000180: 5043 3dbd 9404 44be 9c4d f8bd 1e90 003e
00000190: f291 68be df30 813e 38ea 233e 9ae8 8c3c
000001a0: a45b 7dbe 57d6 a1bf 9ba4 a23f b008 23be
000001b0: deed 2cbe 89dc 163e 4061 51be f1fa 5e3e
000001c0: db63 8abe 469a 48be f622 713e 201a 2fbe
000001d0: 4005 883e 94ef 1f3e ff6f 49be e13f 27be
000001e0: 9053 cc3d eeb5 5fbe 3093 3c3e 87f1 e4bd
000001f0: 0db0 563e 0016 9dba 606d 8fbd c420 9b3d
00000200: 0d13 043d d8a8 c4bc d86f 9e3d 50bf 5d3e
00000210: 0da1 823e a166 dcbd 309e d5bd c81d 64bd
00000220: 95e8 18be be37 493e b17c 79be 90ef 2e3e
00000230: 3d6a 81be c02a ca3b 1849 283d 04b2 2cbe
00000240: a67a 54be 28c0 14be 6806 24bd f738 29be
00000250: 8a32 5d3e a143 66be c96e 323f b81f 29c0
00000260: 96e6 2b3e 46be 3e3f 2a75 c13f 5861 ac3d
00000270: 9275 193e 2d2a 09c0 e519 57c0 ec90 1c3e
00000280: 6c76 213e 77d0 1140 9ec6 d5bd 86b1 183e
00000290: 1eac 95be 4b14 84bf ed61 37bd a867 733d
000002a0: 634d 8dbd e99c 2d3e 0403 e6bd 0553 2bbe
000002b0: 6520 353f ef8c c83c 1c86 803e d0b5 e23d
000002c0: 0db6 0bbe 3c6e bebb 3c0e 84bd 9f60 23be
000002d0: 4fe4 f03f 98b4 c23e bc46 f7bd a953 593e
000002e0: 9d92 cbbc 925a 7b3e e47c 1abe 24e7 69bf
000002f0: 72ee 8fbd 649c 58be 6c35 04be 63fb ba3e
00000300: 65ce bfbc 6514 3b3e 9ec3 923d 1fe9 f03d
00000310: 4ba5 e9bc 4c0f f63d 6e78 e93d 414f 1a3f
00000320: 8a3d cabd 1f46 15be 9f31 c23f 37e0 81be
00000330: 38cf 0e3e 6448 e83d 3677 033f 7e45 4bbe
00000340: ead3 ed3d b9ed 54be 72a5 e13d ce4d 3bbe
00000350: c068 75be e7d4 0b3e ac9a 32bd 04c4 33be
00000360: 5f7f ddbc 1d5c 863f ce97 7abd 703f 9e3d
00000370: ca43 253e 8cc0 88bd a954 333d 654c 0d3e
00000380: 3b7c 52be
-0.22378442 -0.097056866 0.07509023 -0.19941437 -0.030624991 -0.118237406 0.08890838 -0.019406997
0.042316113 0.108121425 0.15399593 -0.24951397 -0.032302894 0.25403258 0.10560212 -0.10607789
-0.03707167 -0.014884084 -0.03875537 0.012679813 -0.18582404 -0.16914575 0.5480743 -0.004634491
0.22281304 0.021001756 0.000120791454 -0.24173212 -0.054169737 0.16238244 0.22493416 -1.2129169
0.073016435 -1.9542242 1.3009892 0.16921067 0.06260445 -0.2338194 -3.7858346 0.09295359
-0.005479902 2.100179 0.15977149 0.18039092 0.008536156 -0.56798106 -0.007914165 -0.07558529
-0.089741096 -0.14122015 -0.07648298 0.05677981 0.3167247 0.015784284 0.012790629 -0.17973794
0.051299013 -0.17754138 -0.12706017 0.16707355 -0.5346075 0.20101058 0.25532952 0.27185634
0.47347137 -0.18648744 0.14790602 0.86953217 -0.26691312 0.096556306 -0.20998041 0.4546988
0.19574171 0.14346911 -0.23098932 -0.2512199 0.018418906 -0.14570387 -0.02601425 -0.11005059
0.099102706 -0.047047123 0.058108382 -0.07792928 -0.16830915 -0.14862522 -0.076770216 -0.2339718
0.119392574 -0.23573878 -0.03283601 0.19225906 -0.111762255 -0.048037373 0.039758973 0.14358982
-0.046206772 -0.19142371 -0.12124178 0.12554976 -0.22711924 0.25232598 0.16007316 0.017200757
-0.2474199 -1.2643536 1.2706484 -0.15921283 -0.16887614 0.14732565 -0.20447254 0.21775414
-0.2702931 -0.195901 0.23548493 -0.1709981 0.26566505 0.15618736 -0.1967163 -0.16332962
0.09976876 -0.21846744 0.18415523 -0.1117888 0.20965596 -0.0011984706 -0.070032835 0.07574609
0.03224473 -0.024006292 0.07736176 0.21655011 0.25513497 -0.107617624 -0.104305625 -0.055692464
-0.14932473 0.1965017 -0.24363972 0.17083573 -0.25276366 0.006169647 0.041085333 -0.16864783
-0.20749912 -0.14526427 -0.040045172 -0.16525637 0.2160131 -0.22486736 0.69700295 -2.642561
0.1678718 0.74509084 1.5113881 0.08417004 0.14986256 -2.1431992 -3.3609555 0.15289658
0.1576783 2.2783487 -0.10438274 0.1491147 -0.29232877 -1.0318693 -0.044771124 0.059425026
-0.06899526 0.16954388 -0.11231044 -0.16730888 0.70752555 0.024481265 0.25102317 0.11069834
-0.13643666 -0.005811481 -0.064480275 -0.15954827 1.8819674 0.38028407 -0.120740384 0.2122332
-0.024850184 0.24546269 -0.15086704 -0.9136832 -0.07027902 -0.21153408 -0.12911004 0.36519918
-0.023413846 0.18269499 0.07166217 0.11763214 -0.0285212 0.120146364 0.11399923 0.6027718
-0.09875019 -0.1457753 1.5171393 -0.25366375 0.13946235 0.113419324 0.51353776 -0.19850728
0.11612685 -0.20793809 0.11017884 -0.18291399 -0.2396574 0.13655435 -0.043604538 -0.17555243
-0.027038274 1.0496861 -0.06117993 0.077269435 0.1613914 -0.066773504 0.04378191 0.13798673
-0.20555203

bias f4 [15]
00000000: 2f6a debc cd5a ecbe e5b3 fe3f d23b e13e
00000010: 1d4f bd3e a2b5 2fbe ed0b ccbd 77a4 d53e
00000020: 115e 7fbe 9ce7 27be febe 4f3f ea4f 323f
00000030: e278 cfbf d552 ecbf c66a c2bf
-0.027150242 -0.46163025 1.989865 0.43990952 0.3697442 -0.17159131 -0.09963212 0.4172704
-0.24938227 -0.16396946 0.81150806 0.6965319 -1.6208766 -1.8462778 -1.5188835

weight f4 [2, 15]
00000000: bfac 033d dfb9 713d 8517 98bf bd3a cbbd
00000010: 248c 71be 469c 55be 8e7b 66bd ed0b 21bf
00000020: dee7 123d 2c8c 12bd 6b81 a23f 5f58 d3be
00000030: e396 c23e 5b42 29bf 788c 08bf 03cf 64bd
00000040: eaf3 ad3e 0610 993f 964c 743e 3b43 3c3e
00000050: aaf5 7e3c 1a4c 22be 7f99 b93e 5236 03be
00000060: 3d4b 72be 28ff 9bbf d876 023e 8935 d9be
00000070: daf4 493e fde1 373f
0.032147165 0.05901515 -1.1882178 -0.09923313 -0.23588616 -0.20860395 -0.056270175 -0.6290882
0.035865657 -0.03577821 1.2695745 -0.4127836 0.38005742 -0.66116875 -0.5333934 -0.055861484
0.33975154 1.1958015 0.2385734 0.18385021 0.015561501 -0.15849343 0.3624992 -0.1281369
-0.23661514 -1.2187243 0.12740648 -0.42423657 0.1972231 0.71829206

bias f4 [2]
00000000: 8377 e83e 523e 63be
0.4540368 -0.22191742
