nets/example_nets/diabetes_0_pgd.pt (torch_old, 14893 bytes, 6 tensors)

weight f4 [20, 8]
0	0xbfdb3071	-1.7124158
1	0xbf4bfe52	-0.79684937
2	0x40548e69	3.321192
3	0xbf6d080c	-0.92590404
4	0xbe1388e2	-0.14407685
5	0x3ec2aea7	0.38023874
6	0x3e1ad747	0.15121184
7	0xc01b4c55	-2.426534
8	0x3f4be7db	0.7965066
9	0x3f711b38	0.9418216
10	0xbfbd0a54	-1.4768777
11	0xbf1391b3	-0.57644194
12	0xbeeb132e	-0.4591307
13	0x3ebbf9e5	0.36714092
14	0x3e888173	0.26661262
15	0xbf85f561	-1.0465509
16	0x3ee8928e	0.45424312
17	0xbfc46d24	-1.5345807
18	0xbdcdbf68	-0.100462735
19	0x3ec0a2a6	0.3762409
20	0xbe8d8c24	-0.2764598
21	0x3e9084da	0.28226358
22	0xbdbe0777	-0.092787676
23	0x3f0be46e	0.5464543
24	0xbee677cc	-0.45013273
25	0x40165d90	2.3494606
26	0xbea0ea07	-0.3142855
27	0xbec0ec81	-0.37680438
28	0xc0218269	-2.5235846
29	0x3c8b058a	0.016970415
30	0x3e3377df	0.17526196
31	0xbf904c33	-1.1273254
32	0xbf71fd35	-0.9452699
33	0x3d01b417	0.031665888
34	0x3fcc1975	1.5945269
35	0x3f2ea256	0.68216455
36	0xbedb02cc	-0.4277557
37	0xc002762a	-2.0384622
38	0xbe95b30a	-0.29238158
39	0xbf920af5	-1.1409594
40	0x3e8d815b	0.27637753
41	0xbe3466e1	-0.1761737
42	0xbe67ae37	-0.22625051
43	0x3e29e9c2	0.16593078
44	0xbd43e2f0	-0.047823846
45	0xbe494f50	-0.19659162
46	0x3dde2fe4	0.10848978
47	0xbe13cb13	-0.14432935
48	0xbe9b2d01	-0.30307773
49	0xbe5f80e9	-0.21826519
50	0xbe162032	-0.14660719
51	0xbd7574ca	-0.05992583
52	0xbda3f74c	-0.080061525
53	0x3ea09f77	0.31371662
54	0x3eb07253	0.34462222
55	0xbe689454	-0.22712833
56	0x3d0e7c78	0.03478667
57	0xbea53404	-0.32266247
58	0xbda2b378	-0.07944387
59	0xbe6666bd	-0.22500129
60	0x3e47649a	0.1947197
61	0x3e09672c	0.13418263
62	0xbe80053e	-0.25004
63	0xbd75d698	-0.060019106
64	0xbe376e93	-0.17913274
65	0x3e50030e	0.20313665
66	0xbe8556b4	-0.26042712
67	0x3e093a4e	0.13401148
68	0xbe36821a	-0.17823067
69	0xbe6a6a60	-0.22892141
70	0x3df7c3e4	0.1209791
71	0xbe8f8f68	-0.28039098
72	0x3e75c40e	0.2400057
73	0xbd6de888	-0.058083087
74	0x3e007d9a	0.12547913
75	0x3de1475c	0.10999939
76	0x3b6f2600	0.0036491156
77	0x3e914f8b	0.28381
78	0xbdf07d7e	-0.11742686
79	0xbe24297a	-0.16031447
80	0xbe34e72c	-0.1766631
81	0xbc1bf320	-0.009518415
82	0xbea9f380	-0.33193588
83	0xbe7f1040	-0.24908543
84	0xbe1eaa06	-0.15494546
85	0xbe692b72	-0.2277048
86	0x3e9302ed	0.2871317
87	0xbe9c990c	-0.30585515
88	0xbc493660	-0.01228103
89	0xbdbaee18	-0.09127444
90	0x3e77e79e	0.24209449
91	0xbe4ee25a	-0.20203534
92	0x3e09884c	0.134309
93	0xbe660e8c	-0.22466487
94	0xbcdcbf10	-0.026946574
95	0xbe03fe61	-0.12890007
96	0xbf183157	-0.59450287
97	0x3f1c3ded	0.6103199
98	0x3f44a0e0	0.76807976
99	0x3f9edd1e	1.241123
100	0xbf24dd5a	-0.64400256
101	0x3fb6a087	1.4267739
102	0xbc51af0a	-0.01279808
103	0xbfffda73	-1.998854
104	0xbfc7e8fc	-1.5617976
105	0x3f59cb1c	0.85075545
106	0x3fce5e84	1.6122594
107	0xbf578e20	-0.8420124
108	0xbd214c1b	-0.03937922
109	0xbf45fe62	-0.7734128
110	0x3db34512	0.087534085
111	0xbe689fa3	-0.22717147
112	0x3e2a3505	0.16621788
113	0x3f5230a0	0.82105446
114	0x3d8dbe15	0.06921021
115	0x3f2a4b6b	0.6652133
116	0xbeaa73d9	-0.3329151
117	0x3f8086ab	1.0041097
118	0xbe06e83f	-0.13174532
119	0xc04f6621	-3.2406085
120	0x3f1c011b	0.60939187
121	0x3faf5a56	1.3699443
122	0xbfd0cd64	-1.631268
123	0xbfd26f68	-1.6440248
124	0xbf24ff73	-0.64452285
125	0xbfa3e2cb	-1.2803587
126	0xbe29bc4a	-0.16575733
127	0x3fb64b7c	1.4241786
128	0x3f77fa9f	0.9686679
129	0xbeaa26d1	-0.3323274
130	0x4011cf62	2.2782826
131	0xbe77cbf1	-0.24198891
132	0x3f3b9a86	0.7328266
133	0x3f84957d	1.035812
134	0x3e461bf0	0.19346595
135	0x3e93979e	0.28826612
136	0x3e6311ea	0.22174802
137	0x3c833dc0	0.016020656
138	0xbd46e240	-0.048555613
139	0xbe81e4f3	-0.25369987
140	0xbe5c9a71	-0.2154329
141	0x3e157ea6	0.14599094
142	0x3da49b20	0.080374
143	0x3e54015e	0.20703647
144	0x3d66bd10	0.056332648
145	0xbe98d888	-0.298527
146	0xbc64b140	-0.013958275
147	0xbe6f3fd8	-0.23364198
148	0x3e8e37e7	0.27777025
149	0xbe6f7590	-0.2338469
150	0x3e19a60e	0.15004751
151	0x3dea6290	0.114445806
152	0xbcb5a484	-0.022173174
153	0xbe708e1d	-0.23491712
154	0xbf9fd268	-1.2486086
155	0xbdc32a5b	-0.09529563
156	0x4060bc8c	3.511508
157	0xbec7e89e	-0.3904466
158	0x3d601c97	0.054714765
159	0xbf36ff4e	-0.71483314

bias f4 [20]
0	0x3e8b7ec6	0.27245158
1	0x3ec89c21	0.39181617
2	0x3eb57333	0.35439453
3	0xbe3eeadf	-0.18644284
4	0xbe5ef8a0	-0.2177453
5	0xbe1d7f8c	-0.15380687
6	0x3c9b8c2e	0.018987741
7	0xbe56c28f	-0.20972656
8	0xbe649431	-0.22322156
9	0xbea8f751	-0.33001187
10	0xbdf56368	-0.11981851
11	0xbe89d5b9	-0.2692087
12	0xbe8f73f4	-0.28018153
13	0xbe1b131b	-0.15144007
14	0x3efc70b7	0.49304745
15	0x3e8bd844	0.27313435
16	0xbf01e40e	-0.5073861
17	0xbeaae3ab	-0.33376822
18	0xbeaf091d	-0.3418664
19	0xbd9427fa	-0.072341874

weight f4 [20, 20]
0	0xbedfa8ec	-0.43683565
1	0x3ed0694b	0.40705332
2	0x3d1334d8	0.035939068
3	0xbf7560b4	-0.9585068
4	0x3d8fc644	0.07020238
5	0xbddb179a	-0.10697861
6	0xbaf6739d	-0.0018802766
7	0x3e34a5a6	0.17641315
8	0xbd7b3668	-0.061331183
9	0xbc26f940	-0.010191262
10	0xbe3bf8d8	-0.18356645
11	0x3db81dec	0.08990082
12	0xbf325c0c	-0.696717
13	0xbea2eb91	-0.31820348
14	0xbe28f09f	-0.1649804
15	0x3f4d3d20	0.80171394
16	0x3e29b697	0.16573559
17	0x3d78a360	0.06070268
18	0x3dd03270	0.1016587
19	0x3e5d8794	0.2163375
20	0xbf99916d	-1.1997505
21	0x3d5f1f95	0.05447348
22	0xbc8bbd2a	-0.017057974
23	0x3f9bb2b2	1.2163908
24	0xbdf8dcfe	-0.12151526
25	0xbe06f14a	-0.13177982
26	0x3e2d1d36	0.16905674
27	0x3e624dee	0.2210004
28	0x3de9a2c0	0.11407995
29	0xbdf6c05c	-0.120484084
30	0x3cc488f0	0.023991078
31	0xbe1e83fe	-0.15480039
32	0x3f59fed8	0.85154486
33	0xbf7c6050	-0.9858446
34	0x3e228555	0.15871175
35	0xbec203d3	-0.37893543
36	0xbf9adbcb	-1.2098325
37	0xbbb058e0	-0.0053816885
38	0x3e21ad0e	0.15788671
39	0x3f297a0a	0.6620184
40	0xbf64fdde	-0.8944987
41	0xbe38d13d	-0.18048568
42	0xbfa37a68	-1.277173
43	0xbf94d944	-1.1628804
44	0xbef1a9ac	-0.47199762
45	0x3e5f2a06	0.21793374
46	0x3bd8b46c	0.006613305
47	0xbd3a3db0	-0.045468986
48	0xbdccf9a4	-0.10008553
49	0x3e40cedc	0.1882891
50	0xbe337c68	-0.17527926
51	0x3dbfe420	0.09369683
52	0xbc69fcca	-0.014281461
53	0xbe00c454	-0.12574893
54	0xbe6d6bda	-0.23185673
55	0xbe5a991a	-0.21347466
56	0x3ee345a5	0.44389072
57	0xbe1f1084	-0.15533644
58	0xbe2ee1c3	-0.17078309
59	0xbffcf828	-1.9763231
60	0xbf4f392c	-0.8094661
61	0xbee0726f	-0.43837306
62	0xbe27e3b9	-0.16395463
63	0x3ed834df	0.42227837
64	0xbd4514f0	-0.04811567
65	0x3d642ee0	0.055708766
66	0x3e2b4c7b	0.16728394
67	0x3e57cc2e	0.21073982
68	0xbe187074	-0.14886647
69	0xbe254e8b	-0.16143243
70	0x3b9cef00	0.004789233
71	0x3e4e0b38	0.20121467
72	0xbf974ae3	-1.1819729
73	0x3e939db7	0.28831264
74	0xbfb4bdde	-1.4120443
75	0x3f8d6229	1.1045581
76	0xbf49d3ea	-0.7883898
77	0xbe012af8	-0.12614048
78	0x3da7f534	0.08201066
79	0xbed3cde1	-0.4136801
80	0x3f02c810	0.5108652
81	0xbf6142f3	-0.8799278
82	0xbf248b46	-0.64275014
83	0xbf8a57d9	-1.0808059
84	0x3fa08996	1.2541988
85	0x3e342c0e	0.1759493
86	0xbe36cd68	-0.17851794
87	0x3d9ebda4	0.07751015
88	0x3e252992	0.16129139
89	0x3e291d26	0.16515025
90	0x3d7806f0	0.06055349
91	0xbe3387e7	-0.17532311
92	0xbf1c8eba	-0.61155283
93	0x3ea2b4b0	0.3177848
94	0xbf22d216	-0.63601816
95	0xbeb34bfa	-0.35018903
96	0x3ee187f1	0.44049028
97	0x3cd83250	0.026391178
98	0x3dbe6488	0.092965186
99	0xbfbc47ca	-1.4709408
100	0x3e049d15	0.12950547
101	0xbdd3e36f	-0.10346114
102	0xbe322fc9	-0.17401041
103	0x3cd42ea4	0.025901146
104	0xbe93b5cd	-0.2884964
105	0x3c31d270	0.010853395
106	0x3d9d9da4	0.07696083
107	0xbe1f8bf0	-0.15580726
108	0xbd1014f8	-0.035176247
109	0xbb73cbc0	-0.0037200302
110	0x3e499182	0.19684413
111	0xbe5c98f9	-0.2154273
112	0x3e2409ec	0.1601941
113	0x3de511d2	0.111850396
114	0x3dcd609b	0.10028192
115	0x3e41a33c	0.18909925
116	0xbc50eea1	-0.012752206
117	0x3daf9e10	0.0857507
118	0x3d77a908	0.060463935
119	0xbdd90b2d	-0.10597835
120	0xbf095cd0	-0.53657246
121	0xbd475907	-0.048668887
122	0x3d3893d3	0.04506285
123	0xbcfe8b68	-0.031072333
124	0xbe8c2df0	-0.27378798
125	0x3dadbf44	0.08483747
126	0xbc9310da	-0.017952371
127	0xbe19f499	-0.15034713
128	0xbd6fe8b0	-0.058571517
129	0x3e464d06	0.1936532
130	0x3d5c15c0	0.05373168
131	0xbbb58460	-0.005539462
132	0xbe644be2	-0.22294572
133	0x3f040835	0.5157502
134	0xbe880066	-0.26562804
135	0x3dd47fd7	0.10375946
136	0xbe4f2f66	-0.20232925
137	0x3de10900	0.10988045
138	0xbe6068b5	-0.21914943
139	0xbda4bada	-0.080434516
140	0xbe197061	-0.14984275
141	0xbe9f2b33	-0.31087646
142	0x3f4bef04	0.79661584
143	0xbe56d49a	-0.20979539
144	0xbe62f768	-0.2216469
145	0xbd41f300	-0.047350883
146	0xbd3b7f82	-0.045775898
147	0xbc88e4a8	-0.016710594
148	0xbc2c41f0	-0.010513768
149	0x3df76bbc	0.120810956
150	0x3e33eb38	0.17570198
151	0x3e2ebcf6	0.1706427
152	0xbf391b37	-0.7230715
153	0xbf8e7161	-1.112835
154	0xbf92a5a2	-1.1456797
155	0xbe14dc4d	-0.14537163
156	0x3f1a747e	0.60334
157	0x3e35f70e	0.17770025
158	0xbc28a530	-0.01029329
159	0xbefe307f	-0.49646375
160	0xbe90ae79	-0.28258112
161	0x3e189f76	0.1490458
162	0x3e58231e	0.21107146
163	0x3e9ca28c	0.30592763
164	0xbd157bf6	-0.03649517
165	0xbe070e24	-0.13188988
166	0x3e4d6b1a	0.20060387
167	0x3defdd94	0.117121845
168	0xbe5e0724	-0.21682411
169	0xbe274b5c	-0.16337341
170	0xbd5974ac	-0.053089783
171	0x3e1ece5e	0.1550841
172	0x3c313f36	0.010818293
173	0xbe7c3a82	-0.24631694
174	0xbef75177	-0.4830434
175	0x3e967d5f	0.29392526
176	0xbe889d6c	-0.26682603
177	0xbc188ef0	-0.009311423
178	0x3d648948	0.055794984
179	0x3cace65e	0.021105941
180	0x3f18ff5f	0.59764665
181	0xbd5cfcbf	-0.053951975
182	0x3e4d1d56	0.20030722
183	0xbf0acb0e	-0.54216087
184	0x3dd38de5	0.103297986
185	0xbd0f2e44	-0.03495623
186	0x3e30297c	0.17203325
187	0xbda17464	-0.07883528
188	0xbe3c7d74	-0.18407232
189	0xbe467600	-0.19380951
190	0xbd8ca344	-0.06867078
191	0x3d023f90	0.0317989
192	0x3e555fcf	0.2083733
193	0xbed140a5	-0.40869632
194	0x3d99edb1	0.07516039
195	0x3b370d2a	0.002793143
196	0x3eb3adab	0.35093436
197	0xbe2e4418	-0.17018163
198	0xbd3aa538	-0.04556772
199	0xbe041d62	-0.12901834
200	0xbc8e121e	-0.017342623
201	0x3def7f90	0.116942525
202	0xbe0c6a9e	-0.13712546
203	0x3db8251e	0.089914545
204	0xbc661c9e	-0.014044909
205	0xbe45f11e	-0.1933026
206	0xbdfd26f7	-0.123609476
207	0xbd7d7a70	-0.061884344
208	0x3de508f8	0.11183351
209	0xbcdfadf8	-0.027304634
210	0xbad8c280	-0.0016537458
211	0xbe42fd43	-0.19041924
212	0x3b4329a7	0.0029779465
213	0x3e3e3299	0.18573989
214	0xbdb97621	-0.090557344
215	0xbe2534f0	-0.16133475
216	0xbe1923f7	-0.14955126
217	0xbe40aa6b	-0.1881501
218	0x3e06c106	0.1315957
219	0x3c654dfc	0.013995644
220	0xbf786366	-0.9702667
221	0xbe2e8c61	-0.17045738
222	0x3df55338	0.11978763
223	0xbe8c56fa	-0.27410108
224	0xbf087016	-0.5329603
225	0xbcae3c40	-0.021268964
226	0xbd1bc817	-0.038032617
227	0xbd3bd178	-0.04585406
228	0xbe1013ab	-0.14070003
229	0xbd170c44	-0.03687693
230	0xbe632ae7	-0.22184335
231	0xbcf309c0	-0.029667735
232	0x3e047e3f	0.12938784
233	0x3f571cf5	0.8402856
234	0x3ec07fcf	0.3759751
235	0xbc9f31e7	-0.019432975
236	0xbf0d2e51	-0.551488
237	0x3d94508c	0.072419256
238	0xbe26e83a	-0.16299525
239	0x3bd849d7	0.0066005993
240	0xbe8f3fe1	-0.27978423
241	0xbe42dd79	-0.19029798
242	0x3d846d8d	0.06466208
243	0xbe455656	-0.19271216
244	0x3e1daa10	0.15396905
245	0x3e45721e	0.19281814
246	0xbe240f68	-0.16021502
247	0xbc860010	-0.016357452
248	0xbcca7938	-0.024716005
249	0x3e63a1f0	0.22229743
250	0xbe033479	-0.12812985
251	0x3e56dc94	0.20982581
252	0xbdd07d63	-0.101801656
253	0x3d927b55	0.0715243
254	0xbf27461a	-0.6534134
255	0xbe2ab26d	-0.16669627

bias f4 [20]
0	0x3deddbdf	0.11614203
1	0xbe789287	-0.24274646
2	0x3fa35260	1.2759514
3	0xbed6dc75	-0.4196507
4	0x3f8615ff	1.0475463
5	0xbe434db9	-0.19072618
6	0x3ec4b263	0.38417348
7	0x3e113ea1	0.14184047
8	0xbe03fa81	-0.12888528
9	0xbf0b7cfb	-0.5448758
10	0xbe2bd18c	-0.16779155
11	0x3dccad35	0.09993974
12	0xbe95af74	-0.29235423
13	0xbe080c0d	-0.13285847
14	0xbe9bea64	-0.30452263
15	0xbe08e0c6	-0.13366994
16	0xbed8d962	-0.4235335
17	0xbc1cb931	-0.009565637
18	0xbf915571	-1.13542
19	0x3cb8ee94	0.0225747

weight f4 [2, 20]
0	0xbe87a36b	-0.26491866
1	0xbef4ed16	-0.47837132
2	0x3f70729a	0.9392487
3	0x3f2da95f	0.67836565
4	0x3ed6f195	0.41981187
5	0x3d0f491a	0.034981824
6	0xbc5a7c61	-0.013335318
7	0xbf8abbb5	-1.0838534
8	0x3d92bfe0	0.071655035
9	0xbef8014e	-0.48438495
10	0xbd42d0e9	-0.047562514
11	0xbdc71716	-0.097212
12	0xbea394f2	-0.31949574
13	0x3d93f098	0.07223624
14	0xbe0df15f	-0.13861607
15	0xbe20ccec	-0.15703171
16	0x3ec65f71	0.3874469
17	0x3ea27701	0.31731418
18	0xbef3679f	-0.47539994
19	0x3c880035	0.016601661
20	0x3e52685d	0.20547624
21	0x3e641776	0.22274575
22	0xbf7e05b6	-0.99227464
23	0xbf055f45	-0.52098495
24	0xbf110515	-0.5664838
25	0x3e3a7d2b	0.1821181
26	0x3e949c7d	0.2902564
27	0x3f96618b	1.1748518
28	0xbe8fa036	-0.2805192
29	0x3ed33df5	0.41258207
30	0xbdee49fb	-0.116352044
31	0x3e875666	0.26433104
32	0x3e994a74	0.29939616
33	0xbc9df6ae	-0.019282665
34	0x3d9dea05	0.07710651
35	0xbd7e9040	-0.062149286
36	0xbe92628c	-0.2859081
37	0xbe870413	-0.26370296
38	0x3ecb37e3	0.39691076
39	0x3e1ee97f	0.15518759

bias f4 [2]
0	0x3e7008b0	0.23440814
1	0xbe86d0c8	-0.26331162
