nets/example_nets/diabetes_0.pt (torch_old, 14893 bytes, 6 tensors)

weight f4 [20, 8]
0	0x3e5b3921	0.21408512
1	0xbe776f46	-0.24163541
2	0x3e7fca06	0.2497941
3	0xbd14f1b4	-0.03636332
4	0xbc2046e0	-0.009782523
5	0x3e30ad07	0.17253505
6	0xbdad2288	-0.08453852
7	0xbe11acb0	-0.14226031
8	0xbd3b05b8	-0.04565975
9	0xbc63f800	-0.013914108
10	0xbe4e7718	-0.20162618
11	0xbdbc7914	-0.09202781
12	0xbe1d8384	-0.153822
13	0xbe849ba8	-0.25900006
14	0xbdc430c8	-0.09579617
15	0x3e0d681c	0.13809246
16	0xbffb50b1	-1.9634
17	0xbfe868e3	-1.8157009
18	0x3fecf83e	1.8513258
19	0xc0713729	-3.7689917
20	0xbf8fae11	-1.1224996
21	0xbff39cf8	-1.9032278
22	0xbe54e24f	-0.20789455
23	0xbfb251ea	-1.3931248
24	0xbe947144	-0.28992665
25	0x3cab26c0	0.0208925
26	0xbce0c570	-0.027437896
27	0x3dd62080	0.10455418
28	0x3dcf76e8	0.101301014
29	0x3e008f0e	0.12554571
30	0x3d002760	0.03128755
31	0xbe867f46	-0.26268977
32	0x3e891b6d	0.26778737
33	0xbe3d4ebc	-0.18487066
34	0xbe4b6292	-0.1986182
35	0xbe228172	-0.15869692
36	0x3df1d920	0.118089914
37	0xbeaa0e9d	-0.33214274
38	0xbe87bae6	-0.2650978
39	0xbdd440de	-0.10363935
40	0x3d3817a8	0.044944435
41	0xbe880272	-0.26564366
42	0xbded044e	-0.11573087
43	0x3d546b98	0.051860422
44	0xbea32de4	-0.3187095
45	0xbe29dcb9	-0.16588105
46	0x3eb1a9cd	0.3469986
47	0xbe9216a0	-0.28532887
48	0xbf961888	-1.1726236
49	0x3fa36703	1.2765812
50	0xc05d2646	-3.455461
51	0x3de8bd2d	0.113642074
52	0x3f72cffd	0.94848615
53	0xbcb2dfed	-0.021835292
54	0x3d6009b3	0.05469675
55	0x408cf3a0	4.4047394
56	0xc02de440	-2.7170563
57	0xbf72121f	-0.945589
58	0x40061ef6	2.0956397
59	0x3ec25d73	0.3796192
60	0x3e9baa0b	0.3040317
61	0x40387a1f	2.8824537
62	0xbecf4cd3	-0.404883
63	0x40090a9b	2.1412723
64	0xbf7267cf	-0.9468965
65	0xbf631e9a	-0.8871857
66	0x40ab5e81	5.355286
67	0xc0b744de	-5.7271566
68	0x3dfb026a	0.1225632
69	0xbe1f647b	-0.15565674
70	0xbe14c1c4	-0.1452704
71	0xc0eb2b70	-7.3490524
72	0x408fc7e5	4.493151
73	0x3f8c823d	1.0977246
74	0xc00b6038	-2.1777477
75	0xbe627e93	-0.22118597
76	0xc078dddf	-3.888542
77	0x40a1f0de	5.0606527
78	0x3f3d69d6	0.7398962
79	0xbf5da145	-0.865742
80	0xbe61fb4f	-0.22068523
81	0xbe866f62	-0.26256853
82	0xbd04b128	-0.032395512
83	0xbe4e19a2	-0.20126966
84	0xbe32e49f	-0.17470025
85	0x3d87f628	0.066387475
86	0x3e9b6799	0.30352476
87	0xbe80ed6a	-0.25181133
88	0xc02c16ab	-2.6888835
89	0xbffce191	-1.9756337
90	0x3f48138e	0.7815484
91	0x40923fb5	4.5702767
92	0x3ff7684f	1.9328707
93	0xbfd1e32d	-1.6397454
94	0x3e638582	0.22218898
95	0x401063e7	2.2560976
96	0x3e0f66e0	0.14004087
97	0x3ebc7a59	0.36812094
98	0xbe49746b	-0.19673316
99	0x3d04d0bc	0.032425627
100	0x3db1b0d9	0.08676309
101	0xbf2e89b0	-0.68178844
102	0xbe108f9e	-0.14117286
103	0x3dbccaa1	0.09218336
104	0x3ff92ea0	1.9467354
105	0xbf4b6388	-0.7944875
106	0x3d9f88b7	0.07789748
107	0x3f6af1e0	0.9177532
108	0x405a13d2	3.4074597
109	0xbf280eb9	-0.65647465
110	0x3f423a9d	0.75870687
111	0xbfcd614c	-1.6045318
112	0x401b4100	2.4258423
113	0x40416834	3.021985
114	0xc072c7e8	-3.7934513
115	0xc0bc2648	-5.879673
116	0xbe11d483	-0.14241223
117	0x3f3a07d8	0.7266822
118	0x3ec54517	0.38529274
119	0xbfac980e	-1.3483903
120	0xbf3a8ab0	-0.7286787
121	0x3f35a1c6	0.7094997
122	0xc00a3a83	-2.1598213
123	0xc065fd52	-3.5935864
124	0x3ede17f3	0.43377647
125	0xbfe80287	-1.8125771
126	0xbd4f474e	-0.05060511
127	0x40e3fbb5	7.124476
128	0x3e13dab0	0.14438891
129	0xbf4f2f02	-0.80931103
130	0x3fcd08f0	1.6018353
131	0x3eb6c49d	0.3569688
132	0xbe9a5562	-0.30143267
133	0xbe78fa05	-0.24314125
134	0x3e09fb0c	0.13474673
135	0xbeee6bf4	-0.46566737
136	0xc05edc65	-3.4822018
137	0x3f842cdf	1.0326194
138	0xbf26855b	-0.65047234
139	0x4044a583	3.072602
140	0xbfa5d444	-1.2955403
141	0x3f8063da	1.0030472
142	0x3d5b240f	0.053501185
143	0x3e8e7f5b	0.2783154
144	0x4102b88c	8.170055
145	0xbfe68bff	-1.8011473
146	0x3e9300d0	0.28711557
147	0xbf5dc431	-0.8662749
148	0x3dc61de6	0.096736714
149	0xc0b966c3	-5.793794
150	0x3f1d7ddc	0.6152017
151	0x410817ec	8.50584
152	0xc091d9b2	-4.557824
153	0xbfe14915	-1.7600428
154	0x409029a5	4.5050836
155	0xc022510a	-2.5361962
156	0x3f09cccd	0.53828126
157	0x4001f674	2.0306673
158	0xbed4638f	-0.41482207
159	0xc0059a04	-2.0875254

bias f4 [20]
0	0xbe3822fe	-0.17982098
1	0xbda15074	-0.07876673
2	0x4002978d	2.0405
3	0xbe900a11	-0.2813268
4	0xbe9799d9	-0.29609564
5	0x3cfa0f60	0.03052491
6	0xbf0972a5	-0.5369056
7	0xbf7657ce	-0.9622773
8	0x3ef1f619	0.4725807
9	0xbe28c632	-0.16481856
10	0xbcd85710	-0.026408702
11	0xbf5c5fea	-0.86083853
12	0xbe8d1184	-0.27552426
13	0xbf738480	-0.95124054
14	0x3e6defd2	0.23236015
15	0xbf488e37	-0.78342
16	0xbe7f9096	-0.24957499
17	0xbe016555	-0.12636311
18	0x3f8d8876	1.105727
19	0xbd5a127c	-0.053240284

weight f4 [20, 20]
0	0x3e2a0e97	0.16607128
1	0xbe0c0efc	-0.13677591
2	0x3f9e7c65	1.2381712
3	0x3dfcfefc	0.12353322
4	0xbe4df2b9	-0.20112123
5	0xbda6014c	-0.08105716
6	0x3eae7d1a	0.3407982
7	0xbe8283a8	-0.2549107
8	0x3e1d41cc	0.15357131
9	0x3f5dbc3e	0.8661536
10	0x3e08d952	0.13364151
11	0xbf2e4536	-0.6807436
12	0xbd9e4c11	-0.07729352
13	0xbf9958fe	-1.1980283
14	0x3f80fd8e	1.0077379
15	0x3f5ad4d0	0.85480976
16	0x3e2c208e	0.16809294
17	0x40035c13	2.0524948
18	0xbf51fb62	-0.82024205
19	0xbf7c1b14	-0.9847882
20	0x3e489f2b	0.19591968
21	0xbd8033a2	-0.06259848
22	0x3f2e8b05	0.68180877
23	0x3c8fccf0	0.017553777
24	0x3ce53f70	0.02798435
25	0x3e532998	0.20621336
26	0xbf4763ec	-0.77886844
27	0xbc95db6b	-0.018293103
28	0xbfb8c634	-1.4435487
29	0xbf2a64e6	-0.6656021
30	0xbe224e6c	-0.15850228
31	0xbeb123af	-0.34597537
32	0x3dfd34f4	0.12363616
33	0x3f00c772	0.5030433
34	0xbfd4f837	-1.6638249
35	0xbeaabc1b	-0.33346638
36	0xbe517d7e	-0.20458028
37	0x3fcdb0c2	1.6069567
38	0xbfc57650	-1.5426731
39	0x3e4c243b	0.19935696
40	0x3dac1d79	0.08404059
41	0x3d424d18	0.047436804
42	0xbf0787c5	-0.5294154
43	0xbbbc8980	-0.005753696
44	0xbccb4288	-0.024811998
45	0x3e33b62e	0.17549965
46	0xbf2c6199	-0.6733642
47	0xbf841752	-1.0319617
48	0xbfac9220	-1.3482094
49	0x40116154	2.2715654
50	0x3e4193ce	0.1890404
51	0x3f848822	1.0354044
52	0xbdbfde78	-0.093686044
53	0x400cbc93	2.1990097
54	0xbe144a87	-0.14481555
55	0xbff34886	-1.9006507
56	0xbe51387d	-0.20431705
57	0x3f433a98	0.7626128
58	0xbe864e63	-0.2623168
59	0xbf9e8d8c	-1.2386947
60	0x3e40db02	0.18833545
61	0xbdc9b390	-0.09848702
62	0xbe5a06b4	-0.2129162
63	0xbded6113	-0.11590781
64	0xbdfffea0	-0.12499738
65	0xbce5fc00	-0.028074265
66	0xc00533be	-2.081283
67	0x3e99a426	0.30008048
68	0x3f7d16a4	0.9886267
69	0xbf74e3c5	-0.9566005
70	0x3d9a8bd4	0.07546201
71	0xbe5d1065	-0.21588285
72	0xbd4797ff	-0.04872894
73	0xc080a179	-4.019711
74	0xbfd13cfc	-1.6346736
75	0xbfdc8a79	-1.7229759
76	0x3f7174b4	0.943187
77	0x3eb4fd46	0.35349482
78	0x402af50f	2.6712072
79	0x3ea6aff2	0.3255611
80	0xbe519eef	-0.20470785
81	0xbdbff240	-0.093723774
82	0xbe9bb15f	-0.3040876
83	0x3dddeed8	0.108365715
84	0xbdc0a45e	-0.094063506
85	0x3bc95600	0.006144285
86	0xbfcde7a1	-1.6086313
87	0x3ef7a254	0.48366034
88	0xbff8d41b	-1.943973
89	0xbeea72f9	-0.45790842
90	0xbe2446a9	-0.1604258
91	0x3f708b6d	0.93962747
92	0x3e5e9f4e	0.21740457
93	0xbd262c06	-0.040569328
94	0xbf0c8e30	-0.5490446
95	0x3e672783	0.22573666
96	0xbdbc723b	-0.09201475
97	0x3e1e146c	0.15437478
98	0xbfb6ee02	-1.4291384
99	0x3f7083fe	0.93951404
100	0xbe525f2a	-0.20544115
101	0x3e205ef0	0.15661216
102	0xbe773aa2	-0.2414346
103	0x3d494ab8	0.049143523
104	0x3e33fcec	0.17576951
105	0xbe61b169	-0.22040333
106	0x3da5175d	0.08061097
107	0xbeeab9b7	-0.45844814
108	0xbec5409a	-0.3852585
109	0xbedc5f2f	-0.4304137
110	0xbe1f4e4a	-0.15557209
111	0x3f4c2527	0.7974419
112	0x3ca86261	0.020554723
113	0x3fda2ce6	1.7044952
114	0xc0278b18	-2.6178646
115	0xbf710b90	-0.9415827
116	0xbc9b3cfb	-0.018949976
117	0xbec7e23d	-0.39039794
118	0xbe3a1d86	-0.18175325
119	0xbfddbcd2	-1.7323248
120	0xbde2a07a	-0.11065765
121	0x3dfc3498	0.12314719
122	0xbedd043e	-0.431673
123	0xbd2f34c0	-0.042774916
124	0x3bc1da20	0.005915895
125	0xbddb8fbc	-0.107207745
126	0xbef945b4	-0.48685992
127	0xbcbc7089	-0.02300288
128	0x3eeb3e75	0.45946088
129	0x3f527cb3	0.82221526
130	0x3e4d2da8	0.20036948
131	0x3db095a2	0.0862229
132	0xbe2c1cc6	-0.16807851
133	0x3e843830	0.25824118
134	0x3e068dd3	0.13140039
135	0xbfcd8758	-1.6056929
136	0xbe4cddb9	-0.20006455
137	0x3f8680b8	1.0508032
138	0x3efdbb6c	0.49557054
139	0x3f1d0225	0.613314
140	0x3deead9e	0.116542086
141	0xbd91d1f0	-0.071201205
142	0x3dd5ac77	0.10433286
143	0xbd704d40	-0.05866742
144	0x3daabcbc	0.083367795
145	0x3e0add66	0.1356102
146	0xbf726926	-0.94691694
147	0x3ebed44a	0.3727134
148	0xbdf83e0a	-0.12121208
149	0xbfe303b8	-1.773551
150	0xbce9fd40	-0.028563142
151	0xbf830429	-1.0235645
152	0x3e055095	0.13019021
153	0xbf30d76e	-0.6907872
154	0xc05b5912	-3.4273114
155	0xbf5e461a	-0.86825716
156	0x3f2d00d9	0.6757942
157	0x3e7817fb	0.24227898
158	0xbeee3d50	-0.46531153
159	0x3f10fefc	0.56639075
160	0xbe3c1922	-0.18368962
161	0x3b24db80	0.0025155246
162	0x3fa4eae9	1.2884189
163	0xbda965f0	-0.08271396
164	0x3df24b6c	0.11830792
165	0xbdaa0e86	-0.083035514
166	0x3ec9fc17	0.39450142
167	0x3e57fec4	0.21093279
168	0xbf8faa8a	-1.1223919
169	0x3f2d7c1a	0.6776749
170	0xbe07a022	-0.1324468
171	0xbe516a27	-0.2045065
172	0xbdc655b3	-0.096843146
173	0xbee3654a	-0.44413215
174	0x3db94209	0.09045798
175	0x3e7dad08	0.24773037
176	0x3de43f7f	0.111449234
177	0x3f7fb57f	0.99886316
178	0x402049e1	2.5045092
179	0xbf4f6c51	-0.8102465
180	0xbe563299	-0.20917739
181	0xbd137fa4	-0.0360104
182	0x3efebc0b	0.4975284
183	0x3e2b5516	0.16731676
184	0xbe1f3442	-0.15547279
185	0xbe233094	-0.159365
186	0x3f639409	0.8889776
187	0xbfb66e77	-1.4252461
188	0xbe023b2e	-0.12717888
189	0x3ffdf708	1.9841013
190	0xbde382ef	-0.11108958
191	0x3fcb1d4d	1.5868317
192	0xbdb47140	-0.08810663
193	0x3fcedf1d	1.6161839
194	0xbfa7da19	-1.3113433
195	0x3fc85207	1.5650033
196	0xbe0ba335	-0.13636477
197	0xbf7daec2	-0.99094784
198	0x3f067ec9	0.5253721
199	0xbfbfa19e	-1.4971197
200	0x3e64d68a	0.22347465
201	0x3df3a3d8	0.11896485
202	0xbf6d4aae	-0.9269208
203	0xbd319200	-0.043352127
204	0x3d986d78	0.074427545
205	0x3d90d554	0.07071939
206	0x3f23913a	0.63893473
207	0xbf700d14	-0.93769956
208	0xbf4f3c05	-0.8095096
209	0x40169eeb	2.3534496
210	0x3b640480	0.0034792721
211	0x40199340	2.3996124
212	0x3e9e8fc7	0.30969068
213	0xbc57e45e	-0.013177006
214	0xbfbeeb6a	-1.4915593
215	0x3fdf618f	1.7451648
216	0x3e1aee89	0.15130056
217	0xbd5bd9e0	-0.05367458
218	0x3f732872	0.9498359
219	0xbfdc5c1c	-1.721561
220	0xbe031c35	-0.12803729
221	0x3dade718	0.08491343
222	0x3ee45919	0.44599226
223	0xbdddf92e	-0.10838543
224	0x3e1db4b8	0.1540097
225	0x3d1c13f0	0.03810495
226	0xbe9f49c6	-0.31110972
227	0xbf8534b6	-1.0406711
228	0x3e127267	0.14301454
229	0xbeeaa681	-0.45830157
230	0xbc95cd48	-0.018286362
231	0xbfcab0eb	-1.5835241
232	0x3e64e0ac	0.2235133
233	0x3fd0fbbc	1.6326823
234	0xc03c7053	-2.9443557
235	0xbec37148	-0.38172364
236	0x3de505d0	0.11182749
237	0xc0009cbb	-2.009566
238	0xbfefe86b	-1.8742803
239	0xbdcc7f5f	-0.099852316
240	0x3e181c6a	0.14854589
241	0xbe12a9f2	-0.14322641
242	0xbf3ef916	-0.74598825
243	0xbe4a2c36	-0.19743428
244	0xbe12bdb4	-0.14330178
245	0x3d5a25d0	0.053258717
246	0xbf01170d	-0.504258
247	0x3dcb5515	0.099283375
248	0x3ff2c245	1.8965536
249	0x3e961f32	0.29320675
250	0xbe025b2a	-0.12730089
251	0x3f41f594	0.7576535
252	0xbdfd7c37	-0.12377208
253	0xbef56943	-0.4793187
254	0xbdb535fa	-0.08848186
255	0xc0270e57	-2.6102502

bias f4 [20]
0	0xbec4ca7e	-0.3843574
1	0x3f9f2f87	1.2436379
2	0x3ccfa766	0.025348376
3	0x3e0cc4e2	0.1374698
4	0x3fbc9ee6	1.4735992
5	0x3e874265	0.26417843
6	0xbf86b9b9	-1.0525428
7	0x3fb16797	1.3859738
8	0xbfb60d72	-1.4222853
9	0xc041af9d	-3.0263436
10	0xbfa7114c	-1.3052154
11	0x4001a528	2.0257053
12	0xbf9321c2	-1.1494677
13	0xbf088a89	-0.5333639
14	0xbe722c34	-0.23649675
15	0xbe223be5	-0.1584316
16	0xc05c039b	-3.43772
17	0x3e5d9e01	0.21642305
18	0x3f3dfbf7	0.7421259
19	0xc024dd0c	-2.5759916

weight f4 [2, 20]
0	0x3f90c14b	1.1308988
1	0xbf833753	-1.0251259
2	0xbf386ba5	-0.7203925
3	0x3f9eb674	1.239943
4	0xbf855bd6	-1.0418651
5	0xbf84d207	-1.0376595
6	0xbf21e1ed	-0.6323536
7	0x3f807193	1.003466
8	0xbf1e23d8	-0.61773443
9	0xbfc1c332	-1.5137694
10	0x3f8b71a1	1.0894052
11	0x3facd0ca	1.3501217
12	0xbf8ad727	-1.0846909
13	0xbf38bacb	-0.72160023
14	0xbe22e0ee	-0.15906116
15	0xbd306040	-0.04306054
16	0x3f95672c	1.167211
17	0x3fbb425b	1.4629625
18	0x3fa60b5d	1.2972218
19	0xc007e236	-2.1231818
20	0xbf638e49	-0.88888985
21	0x3f4e214b	0.8051955
22	0x3f38bf51	0.72166926
23	0xbfc0b987	-1.5056618
24	0x3f89be6a	1.0761235
25	0x3f834df8	1.0258169
26	0x3f1caf42	0.6120492
27	0xbf9e43f1	-1.2364484
28	0x3f4727ba	0.7779499
29	0x3fc03130	1.5015011
30	0xbf5d9140	-0.8654976
31	0xbfa422b4	-1.282309
32	0x3f7a8a70	0.9786749
33	0x3f8b9f36	1.0907962
34	0x3cd2452e	0.025667753
35	0x3e0099b4	0.12558633
36	0xbf94c7f7	-1.1623524
37	0xbf889c95	-1.0672785
38	0xbf9e0191	-1.2344228
39	0x40061996	2.0953116

bias f4 [2]
0	0xbef0fe14	-0.47068846
1	0x3f509a45	0.81485397
