nets/example_nets/digits_0.pt (torch_old, 22466 bytes, 6 tensors)

weight f4 [25, 64]
000000 34 a7 b4 3d 84 56 b2 bd 40 be 47 bd e4 f6 c3 bd
       0.08820954 -0.08707908 -0.04876542 -0.09568575
000010 d0 2f 84 3d ca bd c4 bd 60 ff bc bd 9c 37 74 bd
       0.06454432 -0.09606512 -0.092283964 -0.059623346
000020 b8 4c 9e 3d e0 94 fb bd b8 48 c3 bd 00 e1 60 bb
       0.07729477 -0.12284255 -0.095353544 -0.0034313798
000030 9e 9f 8b bd 00 28 50 39 82 22 a4 3d 04 e8 2f bd
       -0.06817554 0.00019851327 0.08014394 -0.042945877
000040 1a cc 8c bd a8 b3 b2 bc 80 91 56 bb 1c 7f 81 bd
       -0.06874867 -0.021814182 -0.0032740533 -0.06323072
000050 b0 d7 41 3c f4 de 84 bd a4 7c bb bd 80 72 9b ba
       0.011831209 -0.064878374 -0.09154633 -0.0011859685
000060 76 3c 98 bd 58 8d 13 3d 00 01 e4 3a e8 a0 80 bd
       -0.07433407 0.036023468 0.0017395318 -0.062806904
000070 5c 3d a3 3d 78 b0 fd 3c 0a 02 be 3d ee 6c c3 3d
       0.07970688 0.030967936 0.09277733 0.09542261
000080 b0 38 11 bd 64 29 50 bd 88 b7 e2 bc 12 a9 f2 bd
       -0.035454452 -0.050820723 -0.027675405 -0.11848654
000090 00 1c 9f b9 c0 e0 84 3b 98 b8 23 bd fe cc 82 3d
       -0.00030347705 0.0040551126 -0.039970964 0.063867554
0000a0 f0 54 30 bc ea 48 fd bd c0 5f 23 3c 64 27 08 3d
       -0.010762438 -0.12367423 0.009971559 0.03324069
0000b0 a8 d7 0a bd a0 ca 9e bb 18 e9 80 3d 88 c2 24 bd
       -0.033897072 -0.004845932 0.06294459 -0.040224582
0000c0 ac 60 8b bd 00 cb 7d ba a0 fa 64 3c 0e 4d 92 bd
       -0.06805548 -0.00096814334 0.013975769 -0.07143603
0000d0 98 ec 74 bd 50 e3 b1 3c be 3b d3 3d f6 42 d5 bd
       -0.059795946 0.021714836 0.10314129 -0.104131624
0000e0 00 d6 11 bb 7c dc c8 3d dc 8d 6f 3d ee 6d db bd
       -0.0022252798 0.09807679 0.058484897 -0.10714327
0000f0 f0 64 5e bd e0 be f0 3b 38 7d 92 3d 76 e5 f8 3d
       -0.05429548 0.007346973 0.0715279 0.12153141
000100 30 b7 64 3c 37 d1 a9 3c ea 4e f0 bc cf b9 60 be
       0.013959691 0.020729644 -0.029334504 -0.2194588
000110 82 a2 4a 3e 64 c8 aa bd 93 08 91 bc 37 19 c2 3d
       0.19788554 -0.08339003 -0.017704284 0.094774656
000120 e0 cc 2f 39 08 3b 16 3d 9c 82 95 3c 5e a2 9c be
       0.00016765622 0.03667739 0.018250756 -0.30592626
000130 20 52 d7 be 2e 79 66 3d 04 03 5b 3e 17 cf c6 3d
       -0.42054844 0.05626791 0.21387869 0.09707468
000140 e2 29 28 3c 72 77 c6 3d 5e bd c8 bd 77 91 76 bf
       0.010263892 0.09690751 -0.09801744 -0.9631571
000150 d5 79 00 bf 2a ef 96 3e f5 43 b7 3e 98 ab e6 3d
       -0.501859 0.29479343 0.35794035 0.11263198
000160 05 fe e9 bd a7 25 65 bd fe 76 1e bf c6 8c 59 bd
       -0.114254035 -0.05594411 -0.6190032 -0.053112768
000170 97 02 39 be 1a 2f 3b be d0 8e 17 3e 2d 49 7c 3c
       -0.18067394 -0.18279687 0.14800572 0.015398306
000180 e1 c1 e2 3d 5c 44 5e be 9b 3d aa be 43 31 ef 3e
       0.11072136 -0.21705765 -0.33250126 0.4671727
000190 6d 4c 9c 3d 36 ab a9 be d8 6a c0 bc 14 b8 fe 3d
       0.076317646 -0.33138436 -0.023488447 0.12437454
0001a0 c8 30 6b bd d0 5a ec 3c 32 58 3c 3f 16 3f 48 3e
       -0.05741957 0.028851897 0.73572075 0.19555315
0001b0 fa 3a 8f bd dd 9e 17 3e 9c dd 1e 3e 8d 99 59 bd
       -0.06993671 0.14806695 0.15514225 -0.053124953
0001c0 b7 a7 86 3d 8c 9d bc bc eb 22 86 3e 97 19 db 3d
       0.06574958 -0.023024343 0.26198515 0.1069824
0001d0 4b 2e 8b be c0 0b 5b 3e 84 45 61 3e 4f 6c 96 bd
       -0.27183756 0.21391201 0.21999174 -0.07344877
0001e0 d6 2a ee bd 63 b7 02 be e2 4e a2 bd 74 2f 7d be
       -0.11629264 -0.12765269 -0.07925202 -0.24725133
0001f0 5b 1a 07 3f f4 30 f0 bb 7a 92 bd 3d 5f ee 01 be
       0.5277459 -0.0073300544 0.09256454 -0.12688588
000200 78 a8 98 bc 6c 3d 9a 3d e9 60 ff bd 30 8d 98 bc
       -0.01863502 0.075312465 -0.12469656 -0.018622011
000210 57 6a 98 bd b5 d9 f4 3d c9 e2 08 3d 45 e6 80 3d
       -0.07442158 0.11955587 0.033419404 0.062939204
000220 4a 6d b9 3d 65 cd b7 3d 25 7d d6 bb fb 5f a8 bd
       0.09054048 0.08974723 -0.00654568 -0.08221432
000230 e3 f7 62 3d 46 09 84 bc eb fe b9 3d 84 20 fd 3d
       0.055412184 -0.016117703 0.09081825 0.123597175
000240 d0 40 40 3d b7 73 03 bd 1d c6 f1 3c 7e 11 d2 bd
       0.04693681 -0.032092776 0.029513413 -0.102572426
000250 b7 87 dd bb a3 62 b2 bd 3b 36 99 bd 93 40 b2 bd
       -0.0067605632 -0.0871022 -0.07481047 -0.08703723
000260 38 f7 9d 3d 03 9b f0 3d 2f b6 a3 bd 66 11 b6 3c
       0.07713169 0.11748316 -0.07993733 0.022225093
000270 35 d5 3d bc b1 48 91 3c bb 18 2a bd 60 cf 9c 3b
       -0.011586477 0.017734857 -0.04152749 0.004785463
000280 38 d4 f6 bc e2 1a a4 bd c2 7a 57 bd ce 77 ac 3c
       -0.03013049 -0.0801294 -0.052607305 0.021053221
000290 12 cd 0e bd 11 24 3c bd e1 c7 b3 3c a0 6a ac bc
       -0.03486354 -0.045932833 0.021945896 -0.021046937
0002a0 a8 da 8e 3d 3e 66 a4 bb 2d fe c2 3d ff cd 76 bc
       0.06975299 -0.005017071 0.095211364 -0.015063762
0002b0 27 3b 1e bd 4e 3e b5 3d 76 0e e1 3d 80 ca 61 bc
       -0.03863063 0.08849774 0.10989086 -0.01378119
0002c0 c6 55 a6 bd d2 c8 9b bd de f7 6f 3d 77 de 8f 3d
       -0.08121829 -0.07606663 0.058585994 0.07024854
0002d0 4b 17 83 3d 40 c5 1f 3d 1d 7f e5 3c 2c ac f5 bd
       0.06400927 0.03900647 0.028014714 -0.1199573
0002e0 50 26 3e bd 08 c3 46 3d 32 90 fd bd ee 56 39 bc
       -0.046423256 0.04852584 -0.12381019 -0.01131223
0002f0 b3 c6 a6 3d 98 de 99 39 74 1a b1 3d 5c 25 01 bd
       0.081433676 0.0002934828 0.08647624 -0.03152977
000300 8c 20 a8 3d 46 3a 9e bd e5 49 67 3f bf 5c eb 3e
       0.08209333 -0.077259585 0.9034713 0.45969197
000310 37 8d bf be 2c a5 c5 3e 34 f6 2e 3f 1c 34 88 3e
       -0.37412426 0.3860258 0.68344426 0.26602256
000320 9d c2 73 bd 3c f1 5e 3e e6 16 e2 3e a5 38 33 be
       -0.05951177 0.21771711 0.44158095 -0.17502077
000330 ff 05 b1 3e f8 9b 2e 3f e2 7c f9 3b 05 bf c2 bc
       0.34574887 0.6820674 0.007613764 -0.023772726
000340 d7 7f 2a bd 2f 2f 10 3c ea 47 6c 3f 24 cf eb be
       -0.041625824 0.008800312 0.9229723 -0.46056473
000350 50 64 e5 3e 81 5b 1d 3f 3b 1d 24 bf 13 2c 37 3d
       0.44803095 0.6146775 -0.641071 0.044719767
000360 9f db 31 3a 76 f2 ba 3e b6 36 91 3f c0 4a 26 be
       0.000678474 0.36513108 1.1344821 -0.16239452
000370 75 04 32 3c fc ff ee be f0 3b 63 3e a1 53 79 bd
       0.01086532 -0.46679676 0.22190833 -0.06087077
000380 02 6c 2c bc 17 09 04 3e e5 d6 80 be d6 34 30 3e
       -0.010523798 0.12894093 -0.25163952 0.17207655
000390 29 a0 8e bf da 8b 94 bf 47 32 90 3d 60 ed 72 3d
       -1.1142627 -1.1605179 0.0704084 0.05930841
0003a0 69 45 10 bd 7b d8 d7 be b5 b7 87 bf 7b 25 fd be
       -0.035222445 -0.4215735 -1.0602938 -0.49442658
0003b0 8b 1f a2 3e c1 27 c1 3e a6 14 5a bf 57 ca a4 3d
       0.3166469 0.37725642 -0.85187757 0.08046406
0003c0 d6 bf 21 bd 31 75 6f bd f8 54 8c bd 47 ab 5d bf
       -0.03948959 -0.05846137 -0.06852144 -0.86589473
0003d0 6d c0 ac 3e 06 01 21 bf 52 cc 99 bf 40 d8 99 bd
       0.3374056 -0.62892187 -1.2015479 -0.075119495
0003e0 a4 20 d0 bd 2f d3 4d 3b 4a c2 54 3f 33 40 42 3f
       -0.10162476 0.0031406393 0.8310896 0.7587921
0003f0 39 11 4c bf c9 0f 66 bf f5 bf 6e bf 06 00 3f be
       -0.7971378 -0.89867836 -0.93261653 -0.18652353

bias f4 [25]
000000 94 71 5d bd e5 ce df 3e 40 82 a2 bd 4a 93 ad 3d
       -0.054063395 0.43712536 -0.079349995 0.08475359
000010 47 ff ff be 6f f7 ff 3e f4 1d 35 bf 89 9c 7b bf
       -0.4999945 0.49993464 -0.7074883 -0.9828573
000020 5b e6 df bd 79 d7 d1 3e 4d 96 be 3c fa 39 83 bd
       -0.10932609 0.40984705 0.023265028 -0.064075425
000030 91 9c 82 bd aa 6a 7c 39 c6 44 9a 3e bb cb 24 be
       -0.06377519 0.00024072328 0.30130595 -0.16093342
000040 f3 ec e9 3e af 37 ec 3e 70 f6 7a 3f 3e 61 70 bd
       0.4568859 0.46136233 0.98032284 -0.058686487
000050 80 84 3b bc 7b 21 f5 3e c4 42 e2 3d 0c df 9e bd
       -0.011445165 0.47877106 0.11047891 -0.077573866
000060 65 78 b0 bd
       -0.086167134

weight f4 [25, 25]
000000 d2 8b 8c 3d ec a7 94 bd 3f 2d a6 3d 13 bf a3 3f
       0.06862606 -0.07258591 0.08114099 1.2792686
000010 85 8b 4c bf 17 26 aa 3f 73 82 0b bf d6 3d a0 3e
       -0.7990039 1.3292874 -0.54495925 0.31297177
000020 35 b0 34 3c 0f 43 fb 3d a8 1d 1a bf 00 15 c5 3b
       0.011028339 0.1226865 -0.602015 0.0060144663
000030 ee ab 99 3c 6c 80 fe 3e 45 f8 f5 3f f4 ee 89 bf
       0.01875874 0.49707353 1.9216391 -1.0776048
000040 59 b2 81 3e ee 42 16 bf fe 20 51 bf 01 2b 11 3e
       0.2533138 -0.58695877 -0.8169097 0.14176561
000050 e9 4d 8c 3d d7 37 c2 3d 7b 50 d1 be 5a 30 a1 3e
       0.06850798 0.09483307 -0.40881714 0.31482202
000060 70 49 d6 3d d4 91 37 bd f4 f3 a5 bd 37 e1 3a bc
       0.10463226 -0.044816807 -0.08103171 -0.011406234
000070 49 4e c3 3e 9d d8 50 be 4d 37 c5 3e 81 52 2b 3e
       0.38145664 -0.20395131 0.38518754 0.16730691
000080 94 7b 89 3e 74 64 71 bd 23 b7 47 3e 50 c7 69 be
       0.26852095 -0.05893369 0.19503455 -0.22829938
000090 c0 17 44 bd 69 f3 ba bd f6 be 69 3e 2d c7 77 3e
       -0.047874212 -0.09128458 0.22826752 0.24197073
0000a0 6d 50 7c be c7 d1 c0 bd c8 e1 83 3e 5a d7 32 be
       -0.24640055 -0.09415012 0.25758195 -0.17464963
0000b0 61 52 03 3d ed 44 af bd fd 15 8d 3d 57 55 81 bd
       0.032060985 -0.085580684 0.068889596 -0.063151054
0000c0 96 44 a1 3d 7d 30 21 be 1a d8 cb bd 27 8c 7e 3d
       0.0787441 -0.15741153 -0.099533275 0.06214538
0000d0 e6 94 17 be 31 08 45 3c bf 0e 65 bc ce 11 5b be
       -0.14802894 0.012025879 -0.0139805665 -0.2139351
0000e0 51 08 d2 3d 11 b7 06 3e 90 73 1c 3d a9 11 ba bd
       0.102554925 0.13155772 0.038196146 -0.090854
0000f0 55 a4 7f bd 36 1a 2c be 70 2b c8 bd 3c be 3d bd
       -0.06241258 -0.16806874 -0.0977391 -0.046324
000100 a3 10 84 3d aa 3f d1 bd f8 3e b4 bc 4e 51 a3 bd
       0.06448486 -0.10217221 -0.022002682 -0.07974492
000110 f6 fa f5 3d 6b 54 3b be 30 ad a1 bc 18 31 af bc
       0.120107576 -0.18293922 -0.019735903 -0.021385714
000120 a3 d3 cc bc f0 b6 d0 3d f1 7d 0c 3e 10 f4 82 bc
       -0.02500326 0.101911426 0.13719918 -0.015985519
000130 c8 56 30 3f ce 71 f1 3d 7d c9 92 3e 95 2f 8e bd
       0.6888242 0.11789285 0.28669348 -0.06942669
000140 e8 18 df bf f2 84 08 3f 32 4f 5a 3f a9 8d 65 be
       -1.7429476 0.5332786 0.8527709 -0.2241732
000150 f2 cc 55 3f 8f 11 e2 3e f4 b2 7c 3d 0a 31 04 be
       0.83515847 0.4415402 0.0616941 -0.12909332
000160 dd 50 83 bf 78 a8 25 3e 36 f4 7c 3f c7 cb 4c 3e
       -1.0259053 0.16177547 0.98810136 0.1999961
000170 9d 21 57 bf b3 d0 d9 3f 93 fb 4e 3e 92 71 1b bd
       -0.84035665 1.7016815 0.20213155 -0.037950106
000180 bd 1b ce 3f d7 bf a5 3e 80 e2 f9 3d 77 b1 cf bd
       1.6102215 0.32372925 0.122014046 -0.101412706
000190 80 ac 76 bd a2 69 ed 3d 99 2d 29 bd ae bc 91 3f
       -0.060223103 0.115924135 -0.04130325 1.1385705
0001a0 1b a2 43 bf b1 c0 14 3f fd 7b b7 bf 0f 7b 28 bf
       -0.7641923 0.58106524 -1.4334713 -0.6581277
0001b0 84 62 ab 3d 31 69 23 bf ed 03 5a bf e2 4d 8f 3d
       0.083684 -0.63832384 -0.8516224 0.06997277
0001c0 1a cd 33 3e 2f e9 09 3f b8 fa 8e 3f 40 7f c2 bf
       0.17558709 0.53871435 1.1170263 -1.5195084
0001d0 3e 90 46 3f 5b 3f 89 bf 41 c1 89 3f bb 31 d9 3e
       0.77563846 -1.072246 1.0762101 0.42420754
0001e0 d3 d0 f2 bd cc d3 45 3f 2d 32 0f bf 6f e8 07 3d
       -0.11856236 0.772763 -0.5593594 0.03318065
0001f0 82 76 70 bd 19 1f 17 3e a7 56 39 bd 59 88 cc 3c
       -0.058706768 0.14757957 -0.045248654 0.02496736
000200 08 11 c4 3e 4d e0 8e 3d d5 12 88 bd e6 b9 96 3c
       0.38294244 0.06976376 -0.06644217 0.01839919
000210 c5 b0 b9 3e be f3 a4 bc df 1f fd be a0 2c 2c bd
       0.36267677 -0.020135757 -0.49438378 -0.042034745
000220 a9 e8 0e 3e f6 07 4a 3d e0 ca 01 3f 81 e2 56 be
       0.1395594 0.049324 0.5070019 -0.20984842
000230 0f 4d 9f be fd b6 0e 3f 93 a8 0b bf 89 b4 bc be
       -0.3111348 0.5574797 -0.545541 -0.36856487
000240 09 37 36 3d 68 0b 1c bd c0 95 9f 3e 1b 10 85 be
       0.04448608 -0.038096815 0.31168938 -0.2598885
000250 b8 7d 0c be 83 bb 0a be 68 fb 2e be d3 13 e2 3e
       -0.13719833 -0.13548093 -0.17088091 0.4415575
000260 69 2d 2a bd 13 e6 f1 3e b7 a4 b0 3d 35 8b 95 bf
       -0.041547213 0.47245845 0.08625167 -1.1683108
000270 b8 50 a8 be 6e 5c 72 3e a7 16 d0 3c 39 eb 77 bf
       -0.32874084 0.23668072 0.025401426 -0.96843296
000280 15 f9 cb 3d c0 db 94 bd 7c ca 31 3d f3 41 83 3f
       0.09959618 -0.072684765 0.043405995 1.0254501
000290 41 5c 88 bf a8 cd 4f 3f c6 86 dc 3d 28 11 f9 3f
       -1.0653154 0.8117318 0.107678935 1.9458361
0002a0 7c 33 e7 3f 8a 60 c9 3f 44 04 a5 3d b3 8b 6c 3f
       1.8062587 1.5732586 0.08057454 0.92400664
0002b0 3b e6 d4 3c a3 0c 5a bf c2 30 8e bd 12 67 99 3d
       0.025988689 -0.8517553 -0.069428936 0.07490362
0002c0 b1 9b b3 3e 2e 11 12 be 28 7e ac 3e 12 c4 91 be
       0.3507972 -0.14264366 0.3369 -0.28469902
0002d0 f6 e5 f1 3e 0f 9a 20 bf c1 b4 8f be ef 9a 3d bd
       0.4724576 -0.62735075 -0.28067592 -0.046290334
0002e0 94 84 0c 40 27 0b 3a bd 1c bf 61 3d ec 21 88 be
       2.195592 -0.045420792 0.055113897 -0.2658838
0002f0 c5 b9 e0 bf e4 58 2f 3f ad 81 2f be 38 25 06 3f
       -1.7556692 0.6849501 -0.17139311 0.5240054
000300 fc d7 1c c0 1d 94 8f 3f 26 7b ac bf 41 c8 2c 3e
       -2.4506826 1.1217076 -1.3475082 0.16873266
000310 48 9f d5 3e fb bb a5 3e 73 1a 09 3f cc 16 f5 3d
       0.41723084 0.3236998 0.53555983 0.11967239
000320 b0 32 ac bc 5a 0c e4 be 60 ac 1d be e2 a1 8d bf
       -0.021020263 -0.44540673 -0.15397787 -1.1065028
000330 f1 a0 8b 3f 2b 40 2f bf 59 c9 5f 3f 22 fa 88 3f
       1.090849 -0.6845729 0.8741661 1.0701334
000340 f4 26 ce bd f4 2d a9 be 97 75 05 3f c3 40 07 3e
       -0.100660235 -0.33042872 0.5213255 0.13208298
000350 0d fa a1 bc 48 39 f8 3e 90 af 9e bf 61 43 7d 3f
       -0.019772554 0.48481202 -1.2397327 0.9893094
000360 bc 63 0a 3f 12 34 45 3f 6c 9a ff bc 27 9a 33 3f
       0.5405843 0.7703258 -0.031201564 0.7015709
000370 42 1e 4c 3d b2 9e 1f 3f 03 8d 61 3e 55 90 32 3e
       0.049833544 0.62351525 0.22026448 0.17437871
000380 7e 13 b5 3d 8a e3 32 be 41 3f 35 bf de 14 67 3d
       0.088416085 -0.17469612 -0.7079964 0.056416385
000390 7c 0a c0 be 2a 88 84 3f 22 52 8d 3e e5 e8 5e 3f
       -0.37508 1.0354054 0.27601725 0.8707412
0003a0 2a 41 2b 3f 33 17 01 3f 29 b5 75 bf 0a b3 8e 3d
       0.6689631 0.50426024 -0.95979553 0.06967743
0003b0 6b f9 44 3e 91 a1 44 3e d7 3d f3 3f e1 0e c6 bf
       0.1923577 0.19202258 1.9003247 -1.5473291
0003c0 cd 29 07 bf 3b b7 df 3e ce 4c 04 40 b4 37 41 3e
       -0.5279816 0.4369448 2.0671878 0.18868905
0003d0 f1 46 f0 3e 9f b0 13 3e e2 f1 bc 3c 93 a8 c4 be
       0.46929124 0.14422844 0.023064557 -0.38409862
0003e0 25 7a 49 be 04 c9 ca bd 60 5d c0 3b 70 fd 0a 3e
       -0.196755 -0.09901622 0.005870506 0.13573241
0003f0 08 1b a9 bd 71 fa 5a 3e 2b 8d c8 3f ae 92 b4 3f
       -0.08257109 0.21384598 1.5668081 1.4107263

bias f4 [25]
000000 e6 f9 08 3f 83 f2 2c bd 9b 1d 52 be 8a 49 07 3f
       0.53506315 -0.042223465 -0.20519106 0.52846587
000010 56 1d 86 3f 57 1c 4e bc 4c d8 b8 bd 3c c4 92 3f
       1.0477703 -0.012579999 -0.0902563 1.1466136
000020 81 96 98 be 5c ef 2b bc 3c 7c 3e 3e 9c 72 31 3e
       -0.29802325 -0.010494079 0.18602079 0.17328876
000030 ee af 18 be 64 31 be 3e ee 22 e4 3e 2e c9 e4 be
       -0.14910862 0.37147057 0.445579 -0.44684738
000040 48 b3 f9 3e 75 12 3d 3f 2c c9 2e bc 23 2f 0b be
       0.48769593 0.7385629 -0.01066808 -0.135922
000050 aa 3d 90 bc f9 b3 9b 3f 9c 72 26 3e f8 c2 d2 3e
       -0.017607529 1.2164298 0.16254658 0.41164374
000060 28 8a 7f be
       -0.24955046

weight f4 [10, 25]
000000 ab 97 e6 3e b5 79 07 3d c0 b5 ed bd 36 86 07 40
       0.45037588 0.033075053 -0.11606932 2.1175666
000010 49 2e c5 3f 88 94 87 3e de d4 e2 3e 25 18 08 40
       1.540475 0.26480508 0.4430303 2.1264737
000020 59 3e 45 be 8e 98 a1 be 68 17 5f bf 0d a4 ef 3d
       -0.19262065 -0.31561702 -0.8714509 0.11701212
000030 07 1d 2c bf 8d 52 2e bf 08 07 02 c0 20 d5 98 3d
       -0.6723179 -0.6809471 -2.0316792 0.07462525
000040 9c aa c7 bf d3 28 d7 3f 40 84 73 bc 3b 90 49 be
       -1.5598941 1.6809334 -0.014863074 -0.19683926
000050 b2 37 0e bd 9d 71 a4 bd 11 5d 45 bd 57 8d 4f 3d
       -0.034721084 -0.080294825 -0.04818446 0.0506719
000060 17 11 b1 bf 94 ff a3 bf ba 23 e7 bc ab ef 4b 3e
       -1.383334 -1.2812371 -0.028215278 0.19915645
000070 ff 23 1f bf 7b a5 32 c0 eb 23 25 3f af fd 50 3e
       -0.621643 -2.7913501 0.6450793 0.20409273
000080 cd b0 1c c0 58 ee ef 3f cc b7 f1 3f 69 7a a2 bf
       -2.448291 1.8744612 1.8884215 -1.2693607
000090 96 88 fa bf 6f 85 f1 3e 8c c4 da bd 65 34 ee 3f
       -1.9572933 0.47172114 -0.106820196 1.860974
0000a0 66 c6 7e 3e 12 99 dc 3f 14 cf 94 bd e9 b8 f9 3c
       0.2488037 1.7234213 -0.072660595 0.03048368
0000b0 00 95 ed 3b ca 4a e9 3d ed 0b 04 3f 89 a2 8e bf
       0.007250428 0.11391218 0.515807 -1.1143352
0000c0 37 53 fa be 43 ed eb 3f 42 81 59 be d9 7a 6d be
       -0.48891613 1.8431782 -0.21240714 -0.23191394
0000d0 2a cc ac bd 70 a2 55 3f de 60 63 bf d5 cd 61 3d
       -0.08437379 0.83450985 -0.8881968 0.055127937
0000e0 e0 dd da bf 5c 6c 64 3f b0 e4 d5 3e 7a 3e f3 be
       -1.7098961 0.89227843 0.41776037 -0.47508603
0000f0 76 fa e9 bf e5 1e 24 bf 43 ec b9 bf b5 ea cc 3f
       -1.827956 -0.6410964 -1.4525226 1.6009127
000100 3b f0 27 3f 03 ca b0 bd d7 cf 9c 3e 74 71 b5 bf
       0.6560094 -0.08632281 0.3062732 -1.4175248
000110 f8 f3 2f 3e f2 5b e4 3d b9 d2 35 3e 05 1e a2 3f
       0.1718291 0.1115035 0.17756166 1.2665411
000120 4a cd 03 be c3 b2 70 bf 58 14 58 40 6d bd 8b 3e
       -0.1287128 -0.9402277 3.3762417 0.27292958
000130 3a 52 c0 be cf 27 1c 3e 7c 9e de be 54 09 e6 3e
       -0.37562734 0.15249561 -0.4348029 0.44928992
000140 52 b4 27 bf 4f ae ee bf 4f a0 4f 3f ec 81 f1 be
       -0.6550952 -1.8646945 0.81103987 -0.47169435
000150 97 2f 09 c0 1c 90 0d 40 15 be 65 3f 09 8e 28 3f
       -2.1435297 2.2119207 0.8974317 0.6584173
000160 a5 d4 17 bf 22 03 d9 3f 29 8b 98 be a3 c3 02 bf
       -0.59308845 1.6954081 -0.2979367 -0.5107977
000170 6a e0 1d c0 35 ba c1 bd 14 d6 22 3d c7 d6 2e be
       -2.4668221 -0.09459344 0.039754942 -0.17074119
000180 28 9f cf 3f 2c 0e 3e 3f 4f 09 da bf 83 1f b3 be
       1.6220446 0.74240375 -1.7034091 -0.3498498
000190 74 84 7a bf 52 3e 77 bc 84 95 98 3d a8 a8 19 bf
       -0.9785836 -0.015090542 0.07450393 -0.60022974
0001a0 0f 97 dd 3e f7 5d e4 bd 3c 97 10 40 c7 17 06 c0
       0.4327931 -0.11150735 2.2592306 -2.0952013
0001b0 3a 9e 3c 3f 81 26 0d 40 53 6b e1 be ff 64 87 be
       0.73678935 2.205475 -0.44027194 -0.2644424
0001c0 10 e0 33 3f fd a8 d9 be 47 f4 13 c0 9d f5 d5 3e
       0.7026377 -0.4251174 -2.3117845 0.4178895
0001d0 47 b4 20 3f 2f 36 29 3f 1e 95 26 3d 96 4c 89 3d
       0.6277508 0.660983 0.040669553 0.06704061
0001e0 fc c6 31 3e 8d 40 95 be 69 cb 1b be a8 d0 f7 3f
       0.17361063 -0.2915081 -0.15214314 1.9360552
0001f0 52 1f 00 c0 0f 62 2c 40 1f ea f2 3e ad 8f 09 3e
       -2.0019116 2.693485 0.47444245 0.13433714
000200 fb 58 78 bf 54 e4 b0 3f 28 92 29 3f 7b 16 81 bf
       -0.97010773 1.381968 0.6623864 -1.0084985
000210 88 2d f6 be 26 06 ed bf d1 2a 19 bf 7c d2 22 bf
       -0.48081613 -1.8517501 -0.5983096 -0.63602424
000220 1e 44 3a 3f 3c bf ee be 25 e5 e4 3f 55 89 0f 40
       0.7276019 -0.46630275 1.7882429 2.242757
000230 c0 02 dd be c9 eb 0c c0 2b ba 08 40 85 f6 d7 3c
       -0.4316616 -2.2018912 2.1363628 0.026362667
000240 1d 9c 33 be 28 ee 4c be 0a 80 82 bf 0b 03 ad 3e
       -0.17540021 -0.20012724 -1.0195324 0.33791384
000250 38 e7 9f 3d 3b 4a 85 be 71 e9 b8 be ff 18 7c be
       0.07807773 -0.26033196 -0.36115602 -0.2461891
000260 6b d5 e8 bd d0 63 bd 3f 61 88 f5 be 7e 23 e2 be
       -0.11368831 1.4796085 -0.4795561 -0.44167703
000270 f5 b2 d6 3f 97 22 66 bf ed 4e 29 3f 5d d4 16 bf
       1.6773363 -0.8989653 0.66136056 -0.5891779
000280 e1 ab 9a bf a8 bc f3 3d 7b 7e 22 bf c9 e9 2a 3f
       -1.2083703 0.11901218 -0.63474244 0.6676298
000290 de 8f f5 be 9f 41 08 bf 99 7d 67 c0 3f f3 93 3f
       -0.47961324 -0.5322513 -3.6170409 1.1558608
0002a0 8a 29 70 3d f4 cb 28 3e 51 44 05 be 63 71 ae bf
       0.058633365 0.16484052 -0.13014342 -1.3628353
0002b0 af b4 12 bd 75 35 c2 3f be ba 22 3f b5 a0 8c 3e
       -0.035816845 1.5172564 0.63566196 0.2746636
0002c0 88 e0 c4 3e e9 0c cb 3d 63 5b be bf 84 26 48 be
       0.38452554 0.09914572 -1.4871639 -0.19545943
0002d0 0e a7 18 3e 0f b8 8b bf f3 ed bb 3f e2 4c a3 bf
       0.14907476 -1.0915545 1.4681991 -1.2757838
0002e0 6c 83 bb be 59 a1 04 be e8 95 c9 be e0 ab 04 bf
       -0.36623704 -0.12952174 -0.39372182 -0.5182476
0002f0 27 4b 2e 3f 4a 8b c6 bf 36 92 78 bd 1e 2d 83 40
       0.68083423 -1.5511258 -0.060686313 4.0992575
000300 69 60 39 bf 26 3b 78 bd ef bc 3e 3e 80 bd 05 bc
       -0.72412735 -0.060603283 0.1862676 -0.008162856
000310 9d 50 f8 be bb ff a9 3e f3 a7 06 3f 6a 24 69 bf
       -0.48499003 0.3320292 0.5260002 -0.9107119
000320 dc 76 5f bf 27 51 2c be 91 aa bc bd b1 72 8c 3f
       -0.8729074 -0.16827832 -0.092122205 1.0972501
000330 44 5a e6 be 34 d8 ee be 26 9c 93 3f fd bd 24 3f
       -0.44990742 -0.46649325 1.1532028 0.643524
000340 47 22 40 3e 69 4b bd be ee 63 ef 3f f5 11 3d 3f
       0.18763076 -0.36971596 1.8702371 0.73855525
000350 18 03 23 3f b7 12 cd bf 39 01 bc 3e d3 84 3c 3f
       0.63676596 -1.6021336 0.36719683 0.73640174
000360 70 ea 34 bf 1f e5 06 bf 6a 31 a1 bd 5d e6 cc bd
       -0.70670223 -0.5269336 -0.07870753 -0.10004876
000370 58 d5 fd 3d a9 ca 9c bf bc eb f3 3d 12 a6 8f 3e
       0.12394208 -1.2249347 0.11910197 0.2805639
000380 b4 75 d1 3f ab a9 b7 bd c0 e9 b8 3d 3d 5f 90 bd
       1.6364045 -0.089679085 0.09028959 -0.07049415
000390 f9 7c ad bf 69 c1 87 3f 81 3a ad 3e c7 7c 72 3e
       -1.3553764 1.0605899 0.33833697 0.23680411
0003a0 a5 4f 7f be 82 51 ca be 2d 85 17 3f 15 f3 f7 3f
       -0.24932726 -0.3951531 0.59187585 1.9371058
0003b0 c1 ad 4b 3f 93 b6 e5 3f 60 e5 f5 bf 2a b1 14 be
       0.79562 1.7946342 -1.9210625 -0.14520708
0003c0 31 ff 89 3b f2 01 fc 3f b3 2a aa be b2 5f 0e 3e
       0.0042113294 1.9688094 -0.33235702 0.13903692
0003d0 81 3f 0e 3e 7f 6f ec 3c 59 7b 86 3f 57 a4 b4 be
       0.13891412 0.02886176 1.0506393 -0.3528163
0003e0 ad d3 67 bf c6 a5 30 c0
       -0.90557367 -2.760118

bias f4 [10]
000000 75 b9 92 3e 5c 93 59 be 37 52 04 3f 95 58 f9 bc
       0.28657117 -0.2124762 0.5168795 -0.030437747
000010 dd c3 c3 be 0b 0b cb 3e 79 db 81 be b3 70 94 bd
       -0.3823537 0.39656863 -0.25362757 -0.07248058
000020 46 44 19 be af b8 eb 3b
       -0.1496745 0.007193647
