nets/example_nets/digits_0_pgd.pt (torch_old, 22466 bytes, 6 tensors)

weight f4 [25, 64]
00000000: cad0 80bd 7788 1dbe 04b3 f23c 223b 943e
00000010: 0291 c6be f0eb 0d3e ff7c a6bd 5f57 f1bd
00000020: 5768 8cbd a7d2 b73e bd94 9c3f 3f89 263f
00000030: 088e febe 7879 ed3d 0d4c b4be 3528 d4bd
00000040: 71e2 a33c c4ce ba3e fef5 3e3f 86e6 2cc0
00000050: 3673 f43d 0f09 133f d424 39bf 1b35 bdbb
00000060: 1e88 14bd 9c3e a33e d05f f7bf a22d 30c0
00000070: 3791 0c3f 06dc 03bf 18ce 82bf 6709 29bd
00000080: 5360 76bd 0a4d e53e e008 a2bf 05b5 edbd
00000090: d9a3 b53d 0a24 69bf c101 2dbf 30c9 56bc
000000a0: d0b1 62bd b5e7 29bc dd2f bb3f 7eab 633f
000000b0: 846e 0dbf 2ba7 09bf 4453 c1be c08f 643d
000000c0: 43eb 123c 928e 2fbb 319f 873f 401c d2bd
000000d0: fbad 113f bc22 473d 9573 213f d2e4 d3bb
000000e0: 945b 2f3d d8e7 d5bd c45e 743d ba44 c13e
000000f0: 6475 d63e 4df5 453d 71cb 093f 0a8f 2e3b
00000100: 85ad 643b 64aa f3bd 30d0 0fbf fb6b 02bf
00000110: cac1 98bf 211e 1abf 84ca aebf 3d3f bbbe
00000120: 4e0a a2bc 86d2 143f 7200 6abe 5648 02bf
00000130: 1097 02bf 8261 383f a593 f53d bba1 7dbe
00000140: f3bb 5f3d a4cc 7e3f 0a82 a93f 767c a63f
00000150: fbda 0940 5f2c 0640 88e9 c73e 424a 24bc
00000160: 4c48 6a3d c4ea c73e 1be7 143e 985c 453f
00000170: 0c26 bf3e 8725 b1be 9a97 0cbf 8126 a7bb
00000180: e718 f7bc feaf 84bc bc8e fd3e 5092 953f
00000190: 39be 993e 7177 dfbe 09b5 54bf 035e 933d
000001a0: 0d79 343d bb9d 04bd eac0 adbd 1e22 d8be
000001b0: 106c 963f ffac 893e 2ccc a8be b0fa 21bd
000001c0: ad80 0abb 3cd9 a73d 7cee 5dbf 13a3 d8bf
000001d0: 8a16 f63d eb06 1abf 0b3d d43e 7d2c 443d
000001e0: da83 123d 4a88 b0bd 45c2 38bf 9018 0ebf
000001f0: 653f 743e 7b62 cc3e e27a ae3e 836a d03d
00000200: 5144 0ebd f361 b3bc 3bf8 823f b382 21bf
00000210: 5e70 03c0 e9cb 54bf f801 073f e0fb 823e
00000220: d103 4c3d 9eb4 ed3d 8f2d 5f3f 357c 86bd
00000230: ffa5 d23e c661 b63f b31b 843f b2fd 80ba
00000240: 4949 933b 9306 073d 4420 b13e 8fc3 383e
00000250: 0920 0b3f 1a51 c23e 230e abbc eb38 8d3b
00000260: 46c7 b0bb 97ed f0be 7adc 773e 179b 393f
00000270: fbf5 4d3f 3402 83bf 077e 16bf 3941 abbd
00000280: a9b9 c3bd 7a2b 0ebf 8693 a4bf 660a ea3d
00000290: d815 99bd 2d0b 30be 4f93 03bf 8d9d 033d
000002a0: 90b0 b4bc 14d6 e0be 78a0 4cbf 89ab 9c3e
000002b0: 4404 17bf 0b49 c23e a819 41be fbe3 4cbb
000002c0: 9c0f 84bc 3ad3 1fbe 441a 92bd 1da8 1b3e
000002d0: ddaf 58be 744d b8be f750 25bf f54c 0ebd
000002e0: 8382 a43c 109c b9bd dedf 2c3f 4d88 9fbc
000002f0: 32f3 3abf 2f37 c3be 5f13 d3be 1f08 ddbc
00000300: ae66 98bc 4b94 0f3e 3140 4c3f cf6d 17be
00000310: bf50 0cbe aff8 133e 54d2 d8be 3cbc b4be
00000320: e137 56bd e046 4f3e b857 833e 36ee 633f
00000330: 8665 81bf ccc5 4ebf a0bd 8dbe c747 29be
00000340: 4385 263d 2fda bd3f 1db5 d83f 667d 2c3e
00000350: 5232 6d3e 98ad 61be 0448 87be 6e84 3ebd
00000360: 7282 09bd d545 eb3e aa8e a6bf b079 9bbf
00000370: 0af5 053f 67fe 81be 4537 0bbf 7c77 8ebc
00000380: ad97 9cbb dc72 a0be f6d9 01c0 dcc4 c3bf
00000390: 9d74 34bf ce36 e1bf 6a75 cfbe 170f 33bd
000003a0: 3f0c f53c 458f 893c 5114 b4bf 3812 98bf
000003b0: bd5b 94bf 2d9e d2bf 05df 493e 12e8 cd3c
000003c0: 2e1f 01bd bd74 093f 2bfe 9d3e 9a9b f53d
000003d0: 0fac 443f 8508 303e bc67 ae3f 39a2 263e
000003e0: b2c2 debc 93b7 7e3e 041a 0d3f af3e 923c
000003f0: 3401 2b3f a47c 3f3f d88a 793f 6c8f cc3e
-0.06289823 -0.15384088 0.029626377 0.28951365 -0.38782507 0.13859534 -0.0812931 -0.11784243
-0.06855839 0.35902902 1.2232891 0.6505317 -0.49717736 0.11595434 -0.35214272 -0.103592314
0.020005437 0.36485875 0.74594104 -2.70157 0.11936037 0.574357 -0.7232182 -0.005774153
-0.036262624 0.31883705 -1.9326115 -2.7527852 0.5490908 -0.51507604 -1.0219145 -0.041268732
-0.060150456 0.4478534 -1.2658958 -0.11606792 0.08869142 -0.91070616 -0.675808 -0.01310949
-0.055345356 -0.010370185 1.4623982 0.8893355 -0.5524676 -0.53770703 -0.3775884 0.055801153
0.008967224 -0.002678786 1.0595456 -0.102592945 0.569061 0.04861711 0.6306699 -0.0064664865
0.042811945 -0.10444611 0.059660688 0.37747747 0.41886437 0.04832964 0.5382605 0.002663555
0.0034893465 -0.11897734 -0.56177044 -0.50946015 -1.193414 -0.60202223 -1.3655553 -0.36571684
-0.019780304 0.58133733 -0.22851732 -0.50891626 -0.51011753 0.72023785 0.119910516 -0.24768727
0.0546226 0.99531007 1.324281 1.3006732 2.1539905 2.0964582 0.39045358 -0.01002747
0.057197854 0.390463 0.14541285 0.7709441 0.37333715 -0.34598944 -0.54918826 -0.0051010256
-0.030163242 -0.0161972 0.4952296 1.1685276 0.3002794 -0.43645814 -0.8308874 0.07195666
0.044060756 -0.032376986 -0.08484061 -0.4221353 1.1751728 0.26889798 -0.3296827 -0.039545715
-0.0021133826 0.08195731 -0.86692023 -1.6924766 0.12016018 -0.60166806 0.41452822 0.04789399
0.035770275 -0.08619745 -0.7217143 -0.5550623 0.23852308 0.39918885 0.34078127 0.101765655
-0.03473312 -0.021897292 1.0232004 -0.63090056 -2.0537333 -0.8312364 0.5273738 0.2558279
0.049808327 0.116067156 0.8717889 -0.06566659 0.4114227 1.4248588 1.0320953 -0.0009841232
0.0044948203 0.032965254 0.3459493 0.1804335 0.54345757 0.379525 -0.020880764 0.0043097637
-0.005394849 -0.47056267 0.24205199 0.72502273 0.8045346 -1.0235047 -0.5878605 -0.083620496
-0.09556896 -0.5553509 -1.285752 0.114277646 -0.074748695 -0.17191763 -0.5139665 0.032132674
-0.022056848 -0.4391333 -0.79932356 0.3059962 -0.58990884 0.37946352 -0.18857443 -0.0031263817
-0.016120724 -0.1560792 -0.07133916 0.15200849 -0.21160837 -0.35996592 -0.6457667 -0.03474136
0.020081764 -0.0906297 0.67529094 -0.019474173 -0.73027337 -0.3812804 -0.41225716 -0.026981412
-0.018603649 0.14021413 0.7978545 -0.14787982 -0.13702677 0.14450334 -0.42347968 -0.3529986
-0.052299384 0.2024188 0.25652862 0.89035356 -1.0109107 -0.80770564 -0.27683735 -0.16531287
0.040654432 1.4832209 1.6930271 0.1684471 0.23163727 -0.22038877 -0.2642213 -0.046513014
-0.033571668 0.45951715 -1.3012288 -1.2146511 0.52327025 -0.25389406 -0.5438121 -0.017390959
-0.0047788233 -0.3133763 -2.0289283 -1.5294452 -0.7049044 -1.759485 -0.40519267 -0.043715563
0.029913066 0.016791949 -1.40687 -1.188056 -1.1590496 -1.6454521 0.19713981 0.025135074
-0.031523876 0.53693753 0.30857977 0.11992569 0.7682504 0.1719075 1.3625407 0.1627282
-0.027192447 0.24874716 0.5511782 0.017852155 0.6679871 0.7479956 0.97477484 0.39953172

bias f4 [25]
00000000: d00b 9b3e 50fe db3e 38fb 18be 632b 3f3f
00000010: df0f 963e 34fc f13e 255c 86be f807 b53e
00000020: ef10 633e d81e 95bd 26e6 d6bd ca3f 403f
00000030: 55e6 f73e 8e77 ca3e 86d9 a0bd 3dc5 b63e
00000040: 883d 323f effd 8f3e 6c55 51bd 948a dcbe
00000050: 0fae ccbe 0951 1b3e 088b 17bd b778 e23d
00000060: dba3 8dbe
0.3028245 0.42967463 -0.14939582 0.7467558 0.29308984 0.47262728 -0.26242176 0.35357642
0.22174428 -0.072812736 -0.10493116 0.75097334 0.48417917 0.39544338 -0.07853989 0.35697356
0.6962514 0.28123423 -0.051106855 -0.43074477 -0.39976546 0.15167631 -0.036997825 0.11058181
-0.27664074

weight f4 [25, 25]
00000000: f45f 7a3f 5f9e 8bbf 8ebe 713e 8d3f 073f
00000010: 0c56 a0bf e1f6 533f c3e8 fc3e ab95 d73f
00000020: 3fef 4c3e 8346 fe3d 9698 3dbe 9915 903e
00000030: 1923 0f3f f5f9 64be ab7c dcbd 4555 6fbf
00000040: 3461 353f f9ee 6cbd faf3 bfbe d86c 253f
00000050: a5af df3e 5646 88bf 555f afbd ba58 88bf
00000060: 64ef 9d3f d4f5 5f3f ba02 a1be 15e5 5cbf
00000070: 92c8 a73e fcd8 893f 812f 483f a2e1 a53e
00000080: 0a9d 883f 7ccb ec3e 79eb 0c3e 4443 10bf
00000090: f70c d83e a276 d2bf cde8 733e f238 30be
000000a0: 8cc9 b2bf c68c efbf 9fef 6dbf b8d4 663e
000000b0: 281d 7c3e 8937 203f 77c3 44be 117e 493d
000000c0: a355 3ebf 74a6 923f 55c9 0c3d 3f8b 89be
000000d0: 62b6 de3e 3fc2 c03e 4ed6 d23d dcc5 6ebd
000000e0: a828 123f c045 9fbe 4a17 7c3e 6808 0c3e
000000f0: 9e5b 853e fe83 3ebe d122 adbe b6e8 8f3e
00000100: da70 123e f868 c4bd 0276 e33d 25ff 1ebe
00000110: 4f97 2c3e 639b d1bd b6a2 9abe 9532 8ebd
00000120: 24ef c3be 7659 b73e 51a2 b43b d917 7ebd
00000130: 6683 a8be 7a54 cabd 2adf e53c c002 b1be
00000140: c922 2dbd b213 f2be 8dcb 56be 7a3a 773f
00000150: 889b fbbd 29df 0e3e 1ec6 4dbe 5311 36bd
00000160: 5da0 a23d 1e1c b33d 433d 473e f48c b2be
00000170: 2eb8 1abf 2ab3 8bbc d504 953e a8d2 ecbe
00000180: e3e4 e7be b31c 843e 81c8 93be cd25 743f
00000190: dcc4 183f a3b0 02bc 4516 7bbf 7155 f4bc
000001a0: ccd2 c43f 3102 84bd 4614 43be 7311 9a3d
000001b0: 94b4 543f a853 05be 7b29 a7bf d754 a73e
000001c0: b8dd be3e 4224 14bf 9c1c a73d 47d2 0e3e
000001d0: 919c 393e 4055 91bf 7fcd 44bf 9b26 803f
000001e0: 6898 4bbd de5a f23e ba7b 153f 9906 533f
000001f0: fe00 2d3d 5bae 12bf b8d1 11bf 6fe3 5f3d
00000200: 3b29 163f a5b1 c1be 4e10 843d 3435 f93f
00000210: 804a b0be f1c5 3b3e 0380 3c3e e1b6 7cbf
00000220: effb 7dbe 2557 293f 81dd a73e 1408 503d
00000230: ce83 e0bd f87c 9dbe f726 c5bf 67bd afbe
00000240: 3284 2cbf 7a2a 8d3d 38ff ef3e aa17 083f
00000250: 7856 0f3e 436e 71be d5ba 07be 3495 853f
00000260: 7dc4 41bf de12 4e3e 7b7b 1cbf dfe8 05bf
00000270: e256 163e b790 833e f69f a8be 4204 b7bd
00000280: a0fa 843f 82c9 3cbf c92a d3bd cab5 0f3f
00000290: d768 3bbe 1222 38be dea9 3f3f 3470 613f
000002a0: 5c68 e5be 5c39 35bf 09d8 b73e a4dd 68bf
000002b0: 4272 84bf 686d c63e b1cd f9bd b644 183f
000002c0: 043d bcbd 7b68 803e 56bb 68bf ea36 333f
000002d0: 888b 58bf 7a31 99be 481b 5cbe 4c2a bfbe
000002e0: a195 f93d a3ec a6bf 48c5 8b3d 27d5 8cbf
000002f0: ade5 303e 4cc7 023e 1a5d 043f 498e 243f
00000300: f6f6 b7be a842 cfbb 3ba5 413f bcd2 f53e
00000310: fdcc 613e 220b cfbe 4fe2 213f 8518 ef3e
00000320: 9fc5 b13e d15a ab3d 6211 aabf 41a0 0e3e
00000330: c20e 7b3f 1cfd 8abf eac5 183f 78c6 48be
00000340: e402 28bf 7471 c33c fc43 813e b1ee 90bf
00000350: a673 f0be d66f 013f 3503 293e cf9b 53bf
00000360: 95d3 a6bd 54c7 16bf 9eae cc3f 6ea2 2c3d
00000370: ea11 41bd fdcc c03d 8f53 cc3e 9623 203e
00000380: 08f7 353e 4b09 643f 5688 e1be 9082 6e3e
00000390: 4389 63bf a02e 183f 1b7f 833e a0e5 50bf
000003a0: 8f24 06bf 79e7 88bf ced3 a1bd 89c4 673f
000003b0: 3dba b2bf 29ad 9e3f fbbf 3fbf 4b21 323e
000003c0: c183 bfbe 432e bfbe 0f07 923f 1b68 60be
000003d0: 50db 713f d20b 2dbf f11e 073f 1b06 21bf
000003e0: d26f 653f f973 a13e 6d2d a0be c5a7 e03d
000003f0: cc60 c73f a5f6 1dbf 2f02 3d3f 004a a5be
0.9780266 -1.0907706 0.23607847 0.52831346 -1.252626 0.8279858 0.49396333 1.684255
0.2001314 0.12415793 -0.18515238 0.28141478 0.5591293 -0.22360976 -0.10765966 -0.93489486
0.70851445 -0.05784509 -0.37490827 0.6461921 0.43688694 -1.0646465 -0.08563105 -1.0652077
1.2338681 0.8748448 -0.31447393 -0.8628705 0.3277021 1.0769343 0.78197485 0.32398707
1.0672925 0.46248996 0.137617 -0.5635264 0.4219739 -1.6442454 0.23819275 -0.17209223
-1.3967757 -1.8714836 -0.9294376 0.22542083 0.24620497 0.6258474 -0.19215189 0.049192492
-0.7434942 1.1457047 0.034371693 -0.2686405 0.43498522 0.37648198 0.102947816 -0.058294162
0.57093287 -0.31107903 0.24618259 0.13675082 0.2604646 -0.18605039 -0.33815625 0.28107232
0.14300862 -0.09590334 0.111064926 -0.15527017 0.16854595 -0.10234716 -0.30202264 -0.069432415
-0.38268387 0.3581044 0.0055125137 -0.06203446 -0.3291275 -0.09879394 0.028060514 -0.3457241
-0.0422695 -0.4728065 -0.20976086 0.96573603 -0.122855246 0.13952316 -0.20095107 -0.044450115
0.07940743 0.08745597 0.19456963 -0.34873164 -0.60437286 -0.017053206 0.2910525 -0.46254468
-0.45291814 0.25803146 -0.2886391 0.9537018 0.59675384 -0.007976684 -0.98080856 -0.029825898
1.537683 -0.064457305 -0.19050702 0.075228594 0.8308804 -0.13020194 -1.3059534 0.32681915
0.37278533 -0.57867825 0.08159754 0.13947402 0.18126132 -1.1354141 -0.7687606 1.0011781
-0.049705893 0.4733495 0.58391917 0.8243194 0.042237274 -0.57297295 -0.5696063 0.054660257
0.5865666 -0.37830845 0.06448422 1.9469361 -0.3443184 0.18337227 0.18408208 -0.9871655
-0.24803136 0.66148597 0.32786182 0.050788954 -0.1096264 -0.30759406 -1.5402516 -0.3432419
-0.67389214 0.068928674 0.46874404 0.5316111 0.13997829 -0.23577218 -0.13254865 1.0436158
-0.7569044 0.20124385 -0.61125916 -0.5230846 0.1468158 0.25696346 -0.3293454 -0.08936359
1.0388985 -0.73744977 -0.10310895 0.56136763 -0.18301712 -0.17981747 0.7486857 0.88061833
-0.44806182 -0.7079065 0.3590701 -0.90963197 -1.0347369 0.38755345 -0.12197436 0.59479845
-0.09191325 0.25079712 -0.9091085 0.7000567 -0.8458791 -0.2992056 -0.21494782 -0.37336957
0.121867426 -1.3040966 0.06824738 -1.1002549 0.17275114 0.12771338 0.5170456 0.6427961
-0.35930604 -0.0063250847 0.75642747 0.4801234 0.22050853 -0.4043818 0.63235945 0.46698394
0.34721085 0.08366931 -1.3286555 0.1392832 0.98069394 -1.0858493 0.5967699 -0.1960696
-0.6562941 0.02385781 0.2524718 -1.1322843 -0.46963233 0.50561273 0.1650513 -0.8265962
-0.08145825 -0.588979 1.5990789 0.042147093 -0.047136225 0.094140984 0.399075 0.15638575
0.17770016 0.8907668 -0.4404933 0.23291993 -0.8888132 0.59446144 0.2568291 -0.8160038
-0.52399534 -1.069564 -0.07901727 0.90534264 -1.3963085 1.2396594 -0.74902314 0.17395513
-0.37405208 -0.37339982 1.1408404 -0.21914713 0.9447527 -0.6759616 0.5278159 -0.6289994
0.8962375 0.31533793 -0.31284657 0.109694995 1.5576415 -0.61704475 0.73831457 -0.3228302

bias f4 [25]
00000000: d63e 89bd 6771 8a3e 3ab4 62be 17fb 06be
00000010: ab37 913d f1bd 1fbd 6a2f 3a3e 7d8a 493f
00000020: 8a99 df3f 8260 bb3f cbfc d3bf 409f f9bd
00000030: 946a a83b d049 3dbf 8580 b4be fa2f 9e3e
00000040: 79f5 453f 13a9 99be 1e33 203f 6b5c a73f
00000050: 69ba 54bd 4af3 1fbf 9ab3 47be d6c8 253f
00000060: 4cd5 8b3d
-0.06701438 0.27039644 -0.22139063 -0.1318172 0.07090696 -0.0389995 0.1818215 0.7872694
1.7468731 1.4638827 -1.6561521 -0.12188578 0.005139658 -0.73940754 -0.35254303 0.30895978
0.77327687 -0.30011806 0.62578 1.3075079 -0.051935587 -0.62480605 -0.19502106 0.64759576
0.068277925

weight f4 [10, 25]
00000000: b2c8 f9be 50e9 17bf eb2e 1cbe 1897 bfbd
00000010: ac45 733e 2235 8abf 63d4 b9bf 06e3 acbe
00000020: 4f60 08bd 979a 233c e9b6 b5bf 7658 b33f
00000030: 497c 80bf 653d 2bbf 0d63 50bc f7d2 4b3f
00000040: 329b d63e f6cd 643e 42a6 253f 1f89 11bf
00000050: b4b0 e9bf b886 4cbe bed1 cf3f 724e 1cbf
00000060: 8d44 913f 75a9 de3e 1238 a2be 3af7 c7be
00000070: 7d5f 4dbf 59aa 863f 9c02 8dbf 56cb bf3f
00000080: 0ce2 7e3f 2782 5ebd 77a3 1fbf c4d8 bcbe
00000090: 0dfa ad3e 2691 263f 5be6 f43e 7ad4 623e
000000a0: ada7 9cbf 8c5d 303d 4785 c7bd 4e27 7fbf
000000b0: 861f 32be 1893 e93e 1cfa 0dbf f8a6 9dbf
000000c0: dfaf 073f 52b8 9b3f 0719 ef3e baca d73f
000000d0: ce21 343e c53f 42be 01a9 083f 27c1 a6be
000000e0: ec57 f73e 5a6f c23c ad16 c33f cbfc a1be
000000f0: 3999 f6be 029a fd3e 93ad 97be 2dbe e3bf
00000100: 4b70 373f 9a89 30bf e8ec 95bf 5f4a aa3f
00000110: 83f8 5a3f 107f 23bf 3122 8ebf 5a74 55bf
00000120: ac5a 15bf ec2e a23f d4c1 02bf 7746 5e3d
00000130: faf9 0f3f 2ef7 03bf c8e0 b4be 9f7d b63e
00000140: 4b84 2f3f 71f4 113f 1d68 adbf 7e52 293f
00000150: 8fea b13f 7539 09be 30ef 90bf bf58 bebe
00000160: 8521 bcbe 018c b93f 28e8 6c3f 5990 7bbf
00000170: 160d ef3e a98a 29bf 2bb7 373e 5ba2 813f
00000180: d823 bf3d 8c01 193e 0610 6bbf 0805 36bf
00000190: 6c97 283f 1f1f 56be a8f6 193f 2793 a93f
000001a0: c1b8 473e 2b48 e93e 6e22 f73d a652 623f
000001b0: 38c1 abbf e08c 91bf 2bef e53f 5242 41bf
000001c0: afde 113e f458 093e 89a8 a1bf ece8 29bf
000001d0: 1296 80be 1be1 833e 9519 f9be 54ce ebbe
000001e0: 3e35 183f b37e 8fbe 6308 923f 93ce dbbe
000001f0: 4751 55be 0d15 96bc 7135 1abf 0077 9ebe
00000200: a2f1 7e3e 702b cebf 96fa 593f 7567 56be
00000210: 09b1 3bbf 40ed fabe 305f 743f fcdf 953f
00000220: 86f9 81bf 8eee b3bf caf4 9b3e 3240 f5be
00000230: 4ff3 833f b46a a83f c7af 45be af32 dfbc
00000240: 81e8 663f cc17 523e f30d b73f 4103 94bf
00000250: ca56 7f3f 7a29 363f 7333 903f f3ff f13f
00000260: 049c 7abe ff89 e3bc 9a80 a7bf 1bbe eebe
00000270: e0f7 13be b043 eebe c5b9 c6bf 2fd6 95bd
00000280: bfcb 94bf cb7a 893f f46f 623e bb19 993f
00000290: b85b 68be 1902 d83e 18cf fabd a0e7 1ebf
000002a0: 7133 47bf 2ed1 9bbe 7faf 8fbf 70b8 eebd
000002b0: 0d62 673f f17a 943f 5f04 af3d 19d7 c9be
000002c0: 09ad 14be d89f d6bc a528 d9bd d4c4 823f
000002d0: 0359 a83e 8c3a 63bf 12e9 8f3f c309 dbbe
000002e0: 63b7 64be dfa2 a13b 2f8c 28bf d0ae 9f3d
000002f0: 1dc0 b4be c516 7c3f 6540 93bf c59d 193e
00000300: 3023 81bf 75cc 0ebd 76f1 fd3f 27e7 443f
00000310: dbae 8dbc 53b8 8ebe f081 29bf 3c39 b2bf
00000320: af72 fc3b 7b5c 43bf 97e9 a4bd b53d 3fbe
00000330: 75ce 93be aeca 77bf 5642 cc3d b9f1 8d3e
00000340: 5178 ad3f 893e 433f 1535 fa3d 8b94 383f
00000350: e751 833f 2fb1 9b3f 7777 f9be 6065 4f3d
00000360: 10bb 3bbf 744b 54bf 439b 893f 52e1 15be
00000370: aa7d c7be 4985 7b3f 17d0 25bf 1b25 b8be
00000380: e261 a8be b5cf b2bf d728 69bf 1d0a e93e
00000390: 7a24 793c 79d2 083f 32e1 993f 563b 20bf
000003a0: 7632 f83d ae77 903e 152d b6be 8b33 4e3f
000003b0: be74 02bf 52f1 053f c9a6 fc3e f893 42bf
000003c0: 3387 2a3f df09 0e3f c172 903f a0ed c13e
000003d0: eed4 47bf 1680 993f 322a 8abe 62fa c4bd
000003e0: 411b 6abf 29b9 3fbe
-0.4878593 -0.5934038 -0.15252273 -0.09354991 0.23757046 -1.0797465 -1.451794 -0.33766955
-0.033294972 0.009985588 -1.4196445 1.4011371 -1.0037929 -0.66890556 -0.012718928 0.7961878
0.4191528 0.22344193 0.64706814 -0.56849855 -1.825705 -0.19973266 1.6235883 -0.610572
1.1349045 0.4348866 -0.31683403 -0.39055806 -0.8022383 1.0520736 -1.1016421 1.4983928
0.9956367 -0.05432334 -0.623588 -0.3688413 0.33979836 0.6506523 0.47831997 0.22151366
-1.223867 0.043057963 -0.097422175 -0.9966935 -0.17394838 0.45620036 -0.5545976 -1.231658
0.53002733 1.2165625 0.46698782 1.6858742 0.1759102 -0.18969639 0.5338288 -0.3256924
0.48309267 0.023734737 1.5241295 -0.31638178 -0.48163775 0.4953156 -0.29624614 -1.7792412
0.7165572 -0.68959963 -1.1712923 1.3303946 0.8553545 -0.63865757 -1.1104184 -0.83380663
-0.5834148 1.267057 -0.5107701 0.05426642 0.5624081 -0.5154904 -0.35327744 0.35642716
0.6856124 0.57013613 -1.3547398 0.661415 1.3899707 -0.13400824 -1.1322994 -0.37177083
-0.36744323 1.4495851 0.9254174 -0.9826713 0.4668967 -0.66227204 0.17940967 1.0127672
0.093330085 0.14941996 -0.91821325 -0.7110143 0.6585605 -0.2091031 0.6014199 1.3248032
0.19504072 0.45562872 0.12067114 0.8840736 -1.3418341 -1.1371117 1.7963613 -0.7549182
0.14245103 0.13412839 -1.2629558 -0.66371036 -0.25114495 0.2575768 -0.4865233 -0.46055853
0.5945624 -0.2802635 1.140881 -0.4293104 -0.20831786 -0.018320585 -0.60237795 -0.30950165
0.24896863 -1.6107006 0.8514799 -0.20937903 -0.7331701 -0.49009132 0.95457745 1.170898
-1.0154274 -1.4057176 0.30460197 -0.4790054 1.0308627 1.3157563 -0.19305335 -0.027245848
0.9019852 0.2051689 1.4301132 -1.1563493 0.99741805 0.7115704 1.1265701 1.8906235
-0.24473578 -0.027775763 -1.3086121 -0.46629414 -0.14450026 -0.46536016 -1.5525442 -0.07316243
-1.1624678 1.0740598 0.22113019 1.1960977 -0.22691238 0.421891 -0.12246531 -0.6207218
-0.7781287 -0.3043303 -1.1225432 -0.116562724 0.9038399 1.1600019 0.085457556 -0.3942192
-0.14519133 -0.026199266 -0.106034555 1.0216317 0.3288041 -0.8876121 1.1243002 -0.42780885
-0.22335581 0.004932746 -0.65838903 0.07797015 -0.3530282 0.98472244 -1.1504027 0.1500159
-1.0088863 -0.034862954 1.9839313 0.7691521 -0.017295292 -0.27875003 -0.66213894 -1.3923717
0.007704101 -0.7631299 -0.08052366 -0.18675883 -0.28868452 -0.9679364 0.0997359 0.27723482
1.3552343 0.76267296 0.12217156 0.7210166 1.025937 1.2163447 -0.48723957 0.050633788
-0.7333231 -0.8292763 1.0750507 -0.14636734 -0.38963062 0.9825025 -0.64770645 -0.3596581
-0.3288718 -1.3969637 -0.9107794 0.45515528 0.015206451 0.53446156 1.2021849 -0.6259054
0.12119 0.28216308 -0.3558127 0.805474 -0.50959384 0.5232135 0.49345997 -0.7600703
0.6661255 0.5548381 1.128502 0.37876606 -0.7805928 1.1992214 -0.26985317 -0.09618069
-0.91447836 -0.18722977

bias f4 [10]
00000000: 8fcf a33e 5dcc b2bc 40be dc3c d3be a8be
00000010: 636b 4abf 53ae 2d3f 262e 503e f414 163f
00000020: e6b6 b53e 1ca3 34bf
0.31994292 -0.021825964 0.026946187 -0.32958087 -0.7907011 0.6784412 0.20330104 0.5862572
0.35491103 -0.70561385
