nets/example_nets/fashion_0.pt (torch_old, 370772 bytes, 6 tensors)

weight f4 [100, 784]
-0.032660753 0.008475227 0.048274897 -0.036716666 0.018849116 -0.079633236 0.013093542 -0.061249755
-0.24238564 -0.16344328 0.11029685 -0.057218194 0.08770699 0.9757544 0.671575 0.24567015
0.057256524 -0.18554913 0.055685576 0.18954863 0.20637786 0.11646339 0.03191747 -0.044181634
-0.07741867 -0.03356959 -0.015775621 0.048898406 0.031195551 0.012055107 0.06555835 0.0066269413
-0.15193547 -0.3900882 -0.530174 -0.42482713 -0.15545586 0.062798664 0.5975544 0.103993036
0.13547264 0.28806865 0.8607625 0.2578059 0.64411885 0.43528846 0.6906262 0.5213819
-0.0710596 -0.3764229 -0.2916016 -0.20595671 -0.21784353 -0.06742475 0.015942486 0.017735738
-0.01377191 0.05170216 0.005749435 0.02068102 -0.20452772 -0.53840023 -0.6007446 -0.65815216
-0.9510159 -0.3447579 -0.33019862 -0.33014935 0.042022124 0.2938183 0.5853235 0.23189403
0.16151023 0.19377652 -0.25593373 -0.49505454 -0.111048505 -0.1972807 -0.30700812 -0.1114137
-0.075316794 -0.120561175 -0.016387409 0.0132643925 0.023883892 0.024731288 0.038796965 0.014408664
-0.19638053 -0.20161316 -0.2372903 -0.25781268 -0.3772425 0.31575057 0.39633837 0.20083575
0.036755696 -0.26702866 -0.4160677 -0.14033969 0.22757126 0.29886287 0.6212332 0.02211248
-0.065715946 -0.21003732 -0.3190264 -0.2036963 -0.069999225 -0.1289086 0.005340767 0.0169776
-0.026577577 -0.04561316 -0.11839488 -0.0028310004 0.17410661 0.0057080016 0.04278967 -0.12625642
0.0071576703 0.30176783 0.20106523 0.7097199 0.6642213 0.08678627 -0.09581864 0.35667095
0.68465817 0.27212527 0.5356404 0.42888394 -0.14438944 -0.31239298 0.057656907 -0.06962259
-0.076828 -0.26392117 -0.05485581 0.008366109 -0.009915821 -0.13167709 -0.121294454 -0.047580846
0.30617648 0.08655477 -0.03278148 0.21420874 0.004621452 0.44981933 0.47393116 0.61671984
0.7601753 0.6236238 0.56926775 0.48677215 0.40006673 0.5731204 0.2905726 0.28494304
-0.09173946 0.026356366 -0.0071809217 0.24163146 0.11956034 -0.26760954 -0.13384308 -0.03115106
-0.018863538 -0.0993258 0.111876756 -0.028374605 0.16453812 0.3896095 0.3064073 0.07573358
-0.5141027 0.16970548 -0.18884346 0.5874831 0.33041412 0.22144118 0.14273651 0.4784491
0.13784172 -0.0092735225 0.138765 0.09794447 -0.035611447 0.19547185 0.18902095 0.22519018
-0.0647817 -0.1535932 -0.06923738 -0.06316424 0.010837382 0.06121902 0.049462453 0.08036136
0.3719172 0.48670426 0.027119668 -0.7471315 -0.3663634 0.16866839 0.005376383 -0.15665635
-0.015791023 -0.051395338 0.122058764 0.10591698 -0.2505428 -0.506863 -0.41130716 -0.27720976
-0.40977192 -0.06300527 0.37651274 0.23500402 0.048027273 -0.16377914 0.0040568877 0.08027605
0.051401187 -0.061694268 0.11610762 0.10317461 0.570094 0.6709089 0.25927928 -0.70592123
-0.50187725 0.06364504 0.6300993 -0.05041183 -0.023803256 -0.057045303 0.39504367 0.002839538
-0.5616927 -0.67691785 -0.1782887 -0.62550586 -0.7925571 -0.3221849 0.08681391 0.25835398
0.113336086 -0.12670909 0.07049771 -0.0039861295 -0.04507044 -0.15210092 0.08511935 0.04975968
00000000: 48c7 05bd aedb 0a3c e6bb 453d 3764 16bd
00000010: 7669 9a3c c016 a3bd 4c86 563c 06e1 7abd
00000020: f133 78be ad5d 27be 51e3 e13d a05d 6abd
00000030: b99f b33d 0acb 793f 57ec 2b3f f590 7b3e
00000040: d185 6a3d 9700 3ebe 8f16 643d 0919 423e
00000050: b854 533e 5c84 ee3d e5bb 023d cdf7 34bd
00000060: ae8d 9ebd 4480 09bd e03b 81bc b249 483d
00000070: d08d ff3c c982 453c 7543 863d d026 d93b
00000080: f994 1bbe a4b9 c7be 7cb9 07bf f182 d9be
00000090: d22f 1fbe 969c 803d 53f9 183f 4dfa d43d
000000a0: 57b9 0a3e bc7d 933e ee5a 5c3f 23ff 833e
000000b0: f9e4 243f 21de de3e e1cc 303f 4979 053f
000000c0: b287 91bd 81ba c0be ce4c 95be 51e6 52be
000000d0: 6012 5fbe fd15 8abd d199 823c 8a4a 913c
000000e0: 94a3 61bc a5c5 533d c265 bc3b 3e6b a93c
000000f0: b76f 51be 99d4 09bf 66ca 19bf a97c 28bf
00000100: c775 73bf 1c84 b0be cb0f a9be 5609 a9be
00000110: 641f 2c3d 5a6f 963e c3d7 153f a175 6d3e
00000120: f062 253e 5a6d 463e bf09 83be ca77 fdbe
00000130: 666d e3bd f403 4abe 2b30 9dbe de2c e4bd
00000140: b13f 9abd c7e8 f6bd e33e 86bc e552 593c
00000150: 27a8 c33c 4599 ca3c 91e9 1e3d 5112 6c3c
00000160: fa17 49be ae73 4ebe 3afc 72be 0600 84be
00000170: ee25 c1be 0faa a13e ddec ca3e e3a7 4d3e
00000180: 248d 163d fbb7 88be d306 d5be 35b5 0fbe
00000190: 7108 693e 8e04 993e 2409 1f3f 3b25 b53c
000001a0: 1596 86bd 0614 57be 6e57 a3be c395 50be
000001b0: c15b 8fbd 9e00 04be 9a01 af3b 9c14 8b3c
000001c0: 38b9 d9bc ddd4 3abd 0479 f2bd 4e88 39bb
000001d0: 0149 323e 300a bb3b 3944 2f3d 5d49 01be
000001e0: e48a ea3b 5081 9a3e 0be4 4d3e 34b0 353f
000001f0: 680a 2a3f 00bd b13d 903c c4bd 939d b63e
00000200: c245 2f3f 0154 8b3e bb1f 093f ad96 db3e
00000210: d3da 13be f9f1 9fbe a629 6c3d 4a96 8ebd
00000220: 0058 9dbd ad20 87be 7cb0 60bd 0112 093c
00000230: f875 22bc 5cd6 06be 3a69 f8bd 22e4 42bd
00000240: 2ac3 9c3e a143 b13d e045 06bd 8959 5b3e
00000250: 8d6f 973b b84e e63e 1ba7 f23e 5ae1 1d3f
00000260: d99a 423f cfa5 1f3f 88bb 113f 333a f93e
00000270: 8cd5 cc3e 05b8 123f efc5 943e 0ee4 913e
00000280: e6e1 bbbd 4ee9 d73c f04d ebbb 3d6e 773e
00000290: 0ddc f43d 1e04 89be 290e 09be 8230 ffbc
000002a0: b587 9abc 536b cbbd a41f e53d dc71 e8bc
000002b0: ae7c 283e e57a c73e 6be1 9c3e 351a 9b3d
000002c0: 3c9c 03bf 46c7 2d3e 2e60 41be 4b65 163f
000002d0: 0a2c a93e 7ac1 623e 8529 123e 48f7 f43e
000002e0: 6126 0d3e f9ef 17bc 6a18 0e3e 1c97 c83d
000002f0: 4fdd 11bd c629 483e b58e 413e 4198 663e
00000300: 45ac 84bd 8947 1dbe 54cc 8dbd 415c 81bd
00000310: 468f 313c ccc0 7a3d 2499 4a3d 7f94 a43d
00000320: ee6b be3e 4d31 f93e 112a de3c 0344 3fbf
00000330: fc93 bbbe 68b7 2c3e 5f2c b03b 866a 20be
00000340: 2d5c 81bc eb83 52bd f2f9 f93d 00eb d83d
00000350: 2547 80be c6c1 01bf da96 d2be 70ee 8dbe
00000360: a0cd d1be e808 81bd 47c6 c03e e5a4 703e
00000370: 3fb8 443d b8b5 27be a4ef 843b c567 a43d
00000380: 0d8a 523d 21b3 7cbd d5c9 ed3d 364d d33d
00000390: aef1 113f b0c0 2b3f 41c0 843e 41b7 34bf
000003a0: 077b 00bf 5558 823d 304e 213f a37c 4ebd
000003b0: 0cff c2bc 56a8 69bd 2a43 ca3e 8b17 3a3b
000003c0: 18cb 0fbf 7d4a 2dbf 5091 36be 2721 20bf
000003d0: 06e5 4abf 6bf5 a4be 7ecb b13d f946 843e
000003e0: c01c e83d 07c0 01be 1a61 903d 149e 82bb
000003f0: c89b 38bd 58c0 1bbe 0e53 ae3d ced0 4b3d

bias f4 [100]
-1.5339549 0.5294056 -1.17654 -0.68455863 0.6776198 1.1760439 0.5788106 0.64212215
-0.30448148 0.99850583 -1.1713332 -0.16094 -0.030569369 -1.1284162 -1.3645699 -0.053822927
0.8797124 0.3142555 -0.91172445 -0.08494271 0.57955676 0.9742156 0.24465413 0.5210497
0.68545645 -0.8105752 -0.40507728 0.96004313 -0.015814796 -0.29678026 1.1744349 -0.059673663
0.4789928 -0.25740725 0.6914972 0.18865089 1.4775363 -1.6295532 0.4199037 0.5676702
0.35511845 -0.25678876 0.25481653 0.36469412 0.12574703 0.3054153 0.43854815 0.3036096
0.64612186 0.23795342 0.16864435 -0.9044937 0.2716665 0.5800141 2.0967662 0.19388899
-0.028158061 -0.015883083 0.6953832 0.2544755 0.057749853 -0.052418098 -1.2153162 -0.3036962
-0.241796 -0.00514784 0.22759596 -0.0115116 -0.31838793 0.28434792 1.0932993 0.17614432
-0.1630093 0.08003964 0.5814545 0.27574915 0.35664046 0.23125201 0.074590266 1.1154785
0.330199 0.39410588 0.039933193 -0.8621728 0.5586833 0.36192313 0.4034994 -1.1383911
-0.8633003 0.7239244 0.15902312 0.02943357 -1.0023158 -0.59882677 0.26682225 0.33608487
-0.104573876 0.61096036 0.22900487 0.43669355
00000000: a258 c4bf 2087 073f dd98 96bf 3c3f 2fbf
00000010: 7e78 2d3f 9b88 963f ee2c 143f 1e62 243f
00000020: ffe4 9bbe 149e 7f3f 3fee 95bf 75cd 24be
00000030: 9d6c fabc f16f 90bf 3aaa aebf 6e75 5cbd
00000040: d534 613f 19e6 a03e c666 69bf 72f6 adbd
00000050: d55d 143f 3266 793f 9d86 7a3e 8363 053f
00000060: 137a 2f3f db81 4fbf 4a66 cfbe 63c5 753f
00000070: 088e 81bc 95f3 97be e253 963f 5f6c 74bd
00000080: 8b3e f53e e2ca 83be f605 313f b32d 413e
00000090: e91f bd3f 3395 d0bf 9efd d63e d652 113f
000000a0: 16d2 b53e d179 83be 5077 823e 30b9 ba3e
000000b0: d4c3 003e 655f 9c3e 6289 e03e b872 9b3e
000000c0: 3e68 253f 10aa 733e 1bb1 2c3e e68c 67bf
000000d0: df17 8b3e ce7b 143f 6b31 0640 d68a 463e
000000e0: bcab e6bc 3d1d 82bc a204 323f 9d4a 823e
000000f0: 1c8b 6c3d 5cb4 56bd 7b8f 9bbf 117e 9bbe
00000100: 5f99 77be 36af a8bb ea0e 693e 269b 3cbc
00000110: be03 a3be 0d96 913e 3bf1 8b3f 2d5f 343e
00000120: e9eb 26be d3eb a33d 34da 143f fe2e 8d3e
00000130: 9499 b63e 54cd 6c3e c8c2 983d 00c8 8e3f
00000140: d80f a93e 3fc8 c93e fd90 233d 5bb7 5cbf
00000150: de05 0f3f fd4d b93e 7997 ce3e cdb6 91bf
00000160: 4001 5dbf 1c53 393f f5d6 223e ac1e f13c
00000170: e24b 80bf b64c 19bf ed9c 883e 5113 ac3e
00000180: d42a d6bd e667 1c3f 4180 6a3e 4c96 df3e

weight f4 [100, 100]
0.03288897 -0.011595287 -0.10585199 -0.07568099 -0.17865719 -0.08253247 -0.19920331 0.052587435
0.17754926 -0.23113163 -0.16532142 0.032123722 0.01413092 0.023885846 -0.111274846 -0.17250769
0.029694924 -0.18047684 0.09662731 -0.051883943 -0.02839162 -0.06929658 0.0830738 -0.11939365
-0.13648841 -0.00035550026 0.1962133 -0.20232235 -0.02711053 -0.10631134 0.012511412 0.50923437
-0.07227612 -0.2755601 -0.026471049 -0.11804526 0.03121663 0.018408006 -0.016441055 -0.028909832
0.030425446 -0.01290348 0.005694248 0.053466246 -0.076881155 -0.14136973 -0.080712155 -0.09343793
-0.11207781 -0.10118668 -0.15659559 0.13421218 0.0374375 -0.039866053 -0.12510674 -0.18225078
0.0895811 -0.14230117 -0.0574746 0.08784671 -0.051024918 -0.08373741 -0.24460891 -0.17806013
-0.12866089 -0.088396356 -0.020093188 -0.10892648 -0.06098225 0.1840925 0.008030667 -0.045279033
-0.08364255 -0.07567538 -0.14196783 -0.1028524 -0.09718146 -0.11623523 -0.23576243 -0.0312568
-0.025283763 -0.009899376 -0.0135146985 -0.2586739 -0.07820084 0.11721684 -0.09007472 -0.13985252
-0.11330229 0.03795511 0.07994995 0.075435475 -0.017749095 -0.3089978 0.05231165 0.059725016
0.12970108 0.2740664 0.007968107 0.26512575 -0.036051422 0.06919576 -0.19063099 -0.122177325
0.18180807 -0.29460886 -0.023486095 0.34412834 -0.471765 0.14578913 0.22979626 -0.590823
-0.11311312 0.120343745 0.11030956 0.23723324 -0.14743358 0.48112893 0.0012939195 -0.017440792
-0.13936624 0.05151132 0.0413192 0.22179121 0.037147254 -0.054078683 0.15232614 -0.03675333
-0.098663464 -0.4899353 -0.18176243 0.014215012 0.16546552 0.11642663 -0.13573949 0.16748059
-0.03250639 -0.32293075 -0.25992462 -0.096626006 -0.07804331 0.015017025 0.19817786 0.06355687
0.25287604 -0.03962778 -0.0966806 -0.04541645 -0.12778933 -0.05168711 0.26937535 -0.058519453
-0.41309032 -0.077853836 0.46495464 -0.2274164 0.078221016 -0.4230667 0.039810915 -0.19333392
0.06638501 0.09344289 -0.16134593 -0.4221692 -0.07028323 -0.036854353 0.11655752 0.26945668
-0.0915874 0.15913108 -0.0488219 -0.14311594 -0.2241779 0.007087356 -0.65846145 -0.14454171
0.23198624 0.019411879 -0.3050639 0.28999352 -0.16718026 -0.12263349 0.014079595 -0.23801845
-0.095018476 -0.2480218 -0.32723054 -0.3656095 -0.5551325 0.2029555 -0.124212496 -0.034649476
-0.19225581 -0.12458789 -0.11533994 0.13438082 -0.21944262 0.24336676 0.057458803 -0.32573956
-0.5056722 -0.14239322 0.2652738 -0.35246927 0.32339346 0.32595095 0.21636797 0.05419289
-0.42062926 0.07486951 -0.08318046 -0.3439381 0.12336604 -0.20255573 0.024032634 -0.22191268
-0.2847081 -0.562328 0.34036547 0.18570127 0.2733392 -0.3289097 0.01725911 0.12036678
0.09452568 -0.17014273 0.22237104 0.022541625 0.025164088 -0.13206042 0.35178813 -0.08610616
0.21661055 0.022595849 -0.68957835 -0.03193672 0.1605356 -0.18576194 -0.011317291 0.007854842
-0.41770917 -0.111403935 0.40590134 -0.1967892 0.041593585 -0.364412 0.04917137 -0.051533043
0.25784823 -0.054734383 -0.091966376 -0.17918722 -0.08572893 0.27307785 -0.21406063 -0.1377359
00000000: 96b6 063d 29fa 3dbc eec8 d8bd a3fe 9abd
00000010: e9f1 36be c906 a9bd f4fb 4bbe ec65 573d
00000020: 79cf 353e c5ad 6cbe 054a 29be 2a94 033d
00000030: 6085 673c 40ac c33c 11e4 e3bd dba5 30be
00000040: c542 f33c ecce 38be 8ae4 c53d 4284 54bd
00000050: 8b95 e8bc 5eeb 8dbd 9922 aa3d a884 f4bd
00000060: 9ec3 0bbe 7062 bab9 24ec 483e 972d 4fbe
00000070: e716 debc c3b9 d9bd aafc 4c3c 2f5d 023f
00000080: 8105 94bd 3716 8dbe d0d9 d8bc b7c1 f1bd
00000090: 05ba ff3c 63cc 963c 64af 86bc 50d4 ecbc
000000a0: c93e f93c 1e69 53bc d096 ba3b 6cff 5a3d
000000b0: de73 9dbd 3ac3 10be 6a4c a5bd 635c bfbd
000000c0: 0d89 e5bd f63a cfbd 985a 20be eb6e 093e
000000d0: 1058 193d 964a 23bd fb1b 00be f39f 3abe
000000e0: 4c76 b73d 66b7 11be 7c6a 6bbd fae8 b33d
000000f0: 81ff 50bd 857e abbd c27a 7abe 6555 36be
00000100: aebf 03be 2609 b5bd 789a a4bc d914 dfbd
00000110: 86c8 79bd bf82 3c3e 0f93 033c 8276 39bd
00000120: c94c abbd b2fb 9abd 0460 11be 47a4 d2bd
00000130: 1307 c7bd bc0c eebd b56b 71be 2107 00bd
00000140: e51f cfbc fe30 22bc c16c 5dbc e870 84be
00000150: c327 a0bd 620f f03d 1879 b8bd 8035 0fbe
00000160: 080b e8bd d176 1b3d cdbc a33d ea7d 9a3d
00000170: 8d66 91bc f634 9ebe be44 563d 38a2 743d
00000180: 5cd0 043e 6e52 8c3e aa8c 023c 90be 873e
00000190: a8aa 13bd 82b6 8d3d c534 43be 1b38 fabd
000001a0: e52b 3a3e f9d6 96be e965 c0bc 9731 b03e
000001b0: 2f8b f1be bf49 153e b64f 6b3e 2d40 17bf
000001c0: daa7 e7bd c876 f63d fbe9 e13d 45ed 723e
000001d0: d4f8 16be 8856 f63e bc98 a93a fedf 8ebc
000001e0: 06b6 0ebe 89fd 523d 523e 293d 3c1d 633e
000001f0: b827 183d 9c81 5dbd 62fb 1b3e a98a 16bd
00000200: 1210 cabd cdd8 fabe ee1f 3abe 15e6 683c
00000210: cb6f 293e 1671 ee3d 4bff 0abe 0880 2b3e
00000220: 6c25 05bd 2e57 a5be d714 85be dbe3 c5bd
00000230: 2cd5 9fbd f809 763c 23ef 4a3e 1b2a 823d
00000240: f878 813e bd50 22bd 7a00 c6bd 9906 3abd
00000250: 35db 02be ddb5 53bd 91eb 893e 18b2 6fbd
00000260: 9380 d3be d571 9fbd 890e ee3e d8df 68be
00000270: 5732 a03d 339c d8be c510 233d 54f9 45be
00000280: ddf4 873d fc5e bf3d de37 25be 9026 d8be
00000290: a7f0 8fbd 97f4 16bd b6b5 ee3d 3af6 893e
000002a0: 2d92 bbbd 42f3 223e 79f9 47bd fc8c 12be
000002b0: e48e 65be 0d3d e83b ee90 28bf be02 14be
000002c0: cd8d 6d3e a905 9f3c 5631 9cbe 087a 943e
000002d0: 4d31 2bbe 4427 fbbd 1aae 663c 1cbb 73be
000002e0: 0c99 c2bd 6df9 7dbe c38a a7be 2b31 bbbe
000002f0: 2a1d 0ebf 91d3 4f3e 1f63 febd 9cec 0dbd
00000300: b5de 44be f027 ffbd 5937 ecbd 209b 093e
00000310: 91b5 60be 2335 793e ec59 6b3d 56c7 a6be
00000320: bc73 01bf 87cf 11be f8d1 873e da76 b4be
00000330: d493 a53e 0be3 a63e 918f 5d3e 5df9 5d3d
00000340: b85c d7be 3055 993d 845a aabd a818 b0be
00000350: 56a7 fc3d c56a 4fbe 16e0 c43c 143d 63be
00000360: 43c5 91be baf4 0fbf 6244 ae3e 7928 3e3e
00000370: 1ef3 8b3e da66 a8be fa62 8d3c dc82 f63d
00000380: ae96 c13d e539 2ebe 3cb5 633e 37a9 b83c
00000390: eb24 ce3c d93a 07be 931d b43e 6d58 b0bd
000003a0: 28cf 5d3e ee1a b93c 3588 30bf 14d0 02bd
000003b0: 7263 243e 6138 3ebe 296c 39bc 98b1 003c
000003c0: fadd d5be bf27 e4bd 4dd2 cf3e 1c83 49be
000003d0: 095e 2a3d 3694 babe eb67 493d 5014 53bd
000003e0: af04 843e 2931 60bd de58 bcbd db7c 37be
000003f0: a692 afbd dcd0 8b3e b632 5bbe a40a 0dbe

bias f4 [100]
-0.18429378 0.38164264 0.97274226 0.7171358 0.4063364 0.21013696 -0.4225433 -0.056025892
0.8545638 0.0030217567 -0.06929939 0.36588866 0.116816565 0.10707931 1.1359953 0.8180678
0.24198508 0.240432 0.12918544 0.3894035 0.35742182 0.34416187 -0.07873706 0.041227974
-0.3934046 0.268732 0.18294409 0.7674707 0.11349906 0.32234618 -0.012891306 0.18283819
0.5173654 0.22738573 0.03969108 -0.29503903 0.23414823 -0.29752403 0.29149902 0.10787565
-0.27246723 -0.34620607 -0.092100486 0.86481583 0.043652166 -0.03536956 0.1381959 -0.21975563
-0.2663808 -0.026425956 0.11413882 0.34621862 0.5436503 -0.16553387 0.24744964 0.0897801
0.7623743 0.14239873 0.082577005 -0.053297695 -0.34556597 0.4918845 0.02123498 -0.045758143
-0.22761326 0.4538929 0.073848106 0.36117813 0.5536249 1.0528336 -0.22475667 0.24568096
0.44979635 0.15701164 0.22832647 -0.058673598 0.055031132 -0.05756804 0.17081606 0.055445664
-0.17675126 0.4109624 0.83861864 -0.13425335 -0.09602927 0.07399908 -0.38152182 -0.04708718
-0.0916941 0.33309266 0.022124607 0.6248458 0.30009001 0.28370202 -0.02778266 0.13923182
0.49440873 1.0705726 -0.16238813 -0.067150556
00000000: 82b7 3cbe aa66 c33e a305 793f 3696 373f
00000010: 530b d03e 252e 573e 9857 d8be 687b 65bd
00000020: b1c4 5a3f aa08 463b d7ec 8dbd c255 bb3e
00000030: 863d ef3d 664c db3d 4b68 913f e46c 513f
00000040: f0ca 773e ce33 763e 3049 043e e55f c73e
00000050: feff b63e fc35 b03e e540 a1bd aade 283d
00000060: 546c c9be 3e97 893e b255 3b3e f678 443f
00000070: 3272 e83d 8f0a a53e 0e36 53bc ef39 3b3e
00000080: 0f72 043f ced7 683e 1d93 223d 5b0f 97be
00000090: 8ec4 6f3e 1255 98be 5c3f 953e e9ed dc3d
000000a0: d380 8bbe ec41 b1be 2e9f bcbd 9264 5d3f
000000b0: 9dcc 323d acdf 10bd 3a83 0d3e 9f07 61be
000000c0: 1063 88be 3f7b d8bc 9dc1 e93d 9143 b13e
000000d0: ab2c 0b3f b681 29be 7063 7d3e a1de b73d
000000e0: f62a 433f f9d0 113e 221e a93d af4e 5abd
000000f0: 06ee b0be 49d8 fb3e fbf4 ad3c e46c 3bbd
00000100: 7313 69be a664 e83e ad3d 973d 57ec b83e
00000110: 5dba 0d3f 40c3 863f 9d26 66be ca93 7b3e
00000120: b54b e63e a9c7 203e 6ace 693e ba53 70bd
00000130: 5368 613d 77cc 6bbd 68ea 2e3e fe1a 633d
00000140: 48fe 34be aa69 d23e b6af 563f b679 09be
00000150: feaa c4bd d48c 973d d456 c3be 7dde 40bd
00000160: 1eca bbbd 1f8b aa3e aa3e b53c e5f5 1f3f
00000170: 66a5 993e 6441 913e 7698 e3bc c992 0e3e
00000180: 2423 fd3e 8608 893f 1349 26be 3b86 89bd

weight f4 [10, 100]
0.07740796 0.59977907 0.18565746 1.0917596 0.5081451 -0.37934822 -0.6551637 0.28376186
0.7298078 -0.2264322 -0.04347289 0.40878147 0.39021015 0.35883322 -0.22711675 -0.42350444
-0.5360466 0.7109391 -0.17039526 -0.10398744 -0.2537642 -0.27577567 0.3845149 0.26353353
0.427814 -0.029511275 0.2205429 -0.8632319 -0.19057226 -0.344413 -0.43321133 0.29971987
0.80725014 0.9956879 0.15402603 0.15423557 0.11861323 0.1987441 0.5423359 0.18114027
-0.557221 0.3532381 0.40043837 0.3536967 -0.5633719 0.39117447 0.35701582 0.19179915
0.306652 -0.1753755 0.3028336 0.71935225 -0.16984467 -0.31812578 -0.41889066 0.34404024
-0.08512682 0.44629702 -0.21172374 -0.32660487 0.35942924 0.6373031 -0.34118658 0.5109194
-0.12620737 -0.123435654 -0.5931652 0.32248604 -0.6668772 0.113017656 -0.5062537 -0.012434786
-0.73432684 -0.40329295 -0.023758158 0.5839313 0.43439248 -0.3036016 0.2233938 0.42553258
-0.30959412 0.18735667 -0.90427023 0.18626173 0.2215471 -0.45383447 0.3563402 0.09170156
-0.009126465 -0.5892719 0.20193905 -0.07090167 -0.81378764 -0.011689344 0.019907588 -0.2210437
0.49701875 -0.7383416 0.30908668 0.10636278 -0.09083389 -0.09461066 -0.54452056 -0.9192092
-0.22121066 0.4616167 0.46654934 -0.11518235 -0.11097876 0.3312108 -0.12986036 -0.06764904
0.10112969 -0.37979227 -0.5739997 0.64749163 -0.060268093 -0.08118372 0.43320543 -0.3915337
0.25673565 0.2943003 0.2505199 -0.14243543 -0.06789374 0.27950016 -0.12267641 -0.486328
-0.007114448 -0.050663106 0.35098186 -0.17591602 -0.56881875 -0.2362809 0.13557716 0.80350345
-0.22423898 0.8217034 -0.7405687 -0.32373774 1.1594921 0.3935226 -0.091034934 -0.13649082
0.000666073 -0.35899925 -0.59507376 -0.12093596 -0.1140585 0.0019147602 0.3249174 -0.60525215
-0.514844 -0.093887664 0.68966734 -0.09182696 0.035082255 0.73653 -0.7767565 -0.18789922
0.15364671 0.75007516 -0.3034506 -0.26707336 -0.011901381 -0.28190163 -0.11644233 0.59784317
0.16605341 0.1632157 -0.2907739 -0.17910601 -0.22640368 0.0741635 0.2815312 -0.07507869
-0.19940211 0.6238692 0.115096144 -0.40117455 0.07010005 -0.174525 -0.4274936 -0.09507836
-0.15466647 0.1057506 -0.30981675 -0.21393673 0.030792529 0.14736454 0.629963 0.08063717
-0.86598134 0.28446373 -0.01620426 0.47792402 -0.75490797 -0.13160382 -0.22550955 -0.22826692
0.15268032 -0.6548482 0.14890672 0.8554733 -0.748182 -0.4071008 0.57753164 -0.32852235
0.69366276 -0.2153464 -0.3803048 0.1804115 0.5958535 0.37476343 0.47504598 0.29069567
0.45203114 -0.5516869 0.18862398 -0.7492992 -0.15602288 0.56293947 -0.64628273 0.014404478
0.12260171 0.7056573 0.37675935 0.58243257 0.2950041 0.13924958 0.08883779 0.4846041
0.70353806 -0.025549456 0.2698448 -0.45763344 0.47104427 -0.5046997 0.044578478 0.35296774
-0.3264945 0.005989336 0.42299405 0.9873763 -0.15036666 -0.3410308 0.27583376 0.23449634
-0.3918054 0.20084734 -0.7040317 0.336035 0.7349779 -0.32142967 -0.06975558 -0.33683077
00000000: 1188 9e3d 1f8b 193f fd1c 3e3e c7be 8b3f
00000010: cc15 023f ee39 c2be cfb8 27bf 3c49 913e
00000020: afd4 3a3f d8dd 67be a110 32bd ce4b d13e
00000030: a0c9 c73e fdb8 b73e 4b91 68be 93d5 d8be
00000040: 5a3a 09bf 1b00 363f 187c 2ebe 5ef7 d4bd
00000050: 62ed 81be 7832 8dbe 23df c43e deed 863e
00000060: 700a db3e a1c1 f1bc ffd5 613e c4fc 5cbf
00000070: 6025 43be e756 b0be e0cd ddbe e274 993e
00000080: f2a7 4e3f 67e5 7e3f 00b9 1d3e eeef 1d3e
00000090: 7eeb f23d 9383 4b3e 87d6 0a3f d67c 393e
000000a0: 09a6 0ebf a0db b43e 4206 cd3e bc17 b53e
000000b0: 2439 10bf 0548 c83e c7ca b63e ff66 443e
000000c0: 7e01 9d3e a395 33be 010d 9b3e 7827 383f
000000d0: c3eb 2dbe 62e1 a2be d678 d6be 0b26 b03e
000000e0: f856 aebd 0b81 e43e 1cce 58be c138 a7be
000000f0: 1c07 b83e 4c26 233f 02b0 aebe 9dcb 023f
00000100: 813c 01be d5cb fcbd add9 17bf e41c a53e
00000110: 77b8 2abf cd75 e73d d899 01bf 46bb 4bbc
00000120: d8fc 3bbf 6a7c cebe 78a0 c2bc 867c 153f
00000130: b168 de3e ab71 9bbe 58c1 643e 68df d93e
00000140: 1f83 9ebe 6dda 3f3e 417e 67bf 65bb 3e3e
00000150: 3edd 623e fe5c e8be 3972 b63e 07ce bb3d
00000160: 2b87 15bc 86da 16bf 1cc9 4e3e e534 91bd
00000170: 6354 50bf aa84 3fbc 3d15 a33c 4859 62be
00000180: 3e79 fe3e f503 3dbf 9c40 9e3e bbd4 d93d
00000190: 1e07 babd 3cc3 c1bd b365 0bbf 4b51 6bbf
000001a0: 0c85 62be 0659 ec3e 8edf ee3e b9e4 ebbd
000001b0: d548 e3bd 7694 a93e 1dfa 04be 948b 8abd
000001c0: 151d cf3d 2274 c2be a5f1 12bf 03c2 253f
000001d0: addb 76bd a643 a6bd 1acd dd3e 1b77 c8be
000001e0: db72 833e 87ae 963e 2544 803e 98da 11be
000001f0: e00b 8bbd a51a 8f3e c53d fbbd fcff f8be
00000200: 5120 e9bb 1e84 4fbd e5b3 b33e 5423 34be
00000210: 1b9e 11bf 9ff3 71be bdd4 0a3e 67b2 4d3f
00000220: e79e 65be 275b 523f e995 3dbf f4c0 a5be
00000230: 3d6a 943f cb7b c93e 8670 babd 40c4 0bbe
00000240: 679b 2e3a c0ce b7be c156 18bf 46ad f7bd
00000250: 8197 e9bd b1f8 fa3a 935b a63e cef1 1abf
00000260: d1cc 03bf 2d48 c0bd 0a8e 303f c60f bcbd
00000270: 69b2 0f3d 3b8d 3c3f 84d9 46bf a768 40be
00000280: 9055 1d3e ed04 403f e15d 9bbe d7bd 88be
00000290: 03fe 42bc 6955 90be 5179 eebd 400c 193f
000002a0: e809 2a3e 0422 273e 51e0 94be 9167 37be
000002b0: 5ed6 67be 08e3 973d dc24 903e dbc2 99bd
000002c0: 1130 4cbe e4b5 1f3f 87b7 eb3d c066 cdbe
000002d0: 9d90 8f3d aeb6 32be 71e0 dabe 71b8 c2bd
000002e0: e360 1ebe c593 d83d 4da0 9ebe 3b12 5bbe
000002f0: 9d40 fc3c bbe6 163e 4145 213f 1a25 a53d
00000300: f4b0 5dbf 3ba5 913e ccbe 84bc 75b2 f43e
00000310: a641 41bf 27c3 06be faeb 66be cebe 69be
00000320: 3b58 1c3e 22a4 27bf 017b 183e 4c00 5b3f
00000330: db88 3fbf 846f d0be 1dd9 133f 1534 a8be
00000340: e293 313f c483 5cbe 50b7 c2be cbbd 383e
00000350: db89 183f fee0 bf3e 3a39 f33e 10d6 943e
00000360: a070 e73e 5a3b 0dbf a526 413e 13d2 3fbf
00000370: 76c4 1fbe cd1c 103f c972 25bf c200 6c3c
00000380: 9b16 fb3d f5a5 343f 9ae6 c03e 4d1a 153f
00000390: c70a 973e 7197 0e3e 96f0 b53d 071e f83e
000003a0: 121b 343f 184d d1bc 1929 8a3e ee4e eabe
000003b0: b72c f13e 0034 01bf ec97 363d 30b8 b43e
000003c0: 492a a7be 3142 c43b ad92 d83e b1c4 7c3f
000003d0: b8f9 19be 979b aebe 153a 8d3e cf1f 703e
000003e0: b89a c8be edaa 4d3e 6c3b 34bf c80c ac3e
000003f0: 8327 3c3f 6e92 a4be 03dc 8ebd 1575 acbe

bias f4 [10]
0.06068933 -0.5923854 0.48835665 0.43254352 0.08168596 0.095196776 0.8421707 -0.33363196
-0.21291614 -0.88453984
00000000: 6095 783d 92a6 17bf e209 fa3e 5876 dd3e
00000010: f84a a73d 87f6 c23d 8098 573f cfd1 aabe
00000020: b006 5abe 3471 62bf
