nets/example_nets/fashion_0_pgd.pt (torch_old, 370772 bytes, 6 tensors)

weight f4 [100, 784]
0	0xbd429c93	-0.047512602
1	0xbc1437d7	-0.009046516
2	0x3bea86d0	0.007157184
3	0xbce8b72f	-0.028407661
4	0xbd12f3e3	-0.03587712
5	0xbc023e7d	-0.007949469
6	0x3b032cfd	0.0020015829
7	0x3a862155	0.0010233322
8	0xbd699b1e	-0.057032697
9	0xbd362dff	-0.04447746
10	0x3d8c5fea	0.06854232
11	0xbcb614ff	-0.022226809
12	0x3c8ea1aa	0.017411072
13	0x3edb4045	0.4282247
14	0x3ebeefa1	0.37292197
15	0x3dbbabfa	0.09163661
16	0x3da29d6c	0.07940182
17	0x3f2d4c2f	0.6769437
18	0x3ca2a66e	0.01985475
19	0xbb3521a9	-0.0027638471
20	0x3da7a951	0.081865914
21	0x3ca434fc	0.020044796
22	0xbc9c36e4	-0.019069143
23	0xbc70b8b8	-0.014692478
24	0xbc10a2fe	-0.008827923
25	0xbc2d8a28	-0.010592021
26	0xbceda222	-0.029007975
27	0xbca9df9c	-0.020736508
28	0x3c4d1fe4	0.01251981
29	0x3ba14eb2	0.0049227113
30	0xbd46e1b5	-0.048555095
31	0xbd9f5d4d	-0.077814676
32	0xbdc44a27	-0.09584456
33	0xbd71e912	-0.059060164
34	0xbda55415	-0.08072678
35	0xbe261e6a	-0.1622254
36	0xbe687886	-0.22702226
37	0x3ec8268b	0.39091906
38	0x3f1b5130	0.6067076
39	0x3e731105	0.23736961
40	0xbe693cc2	-0.22777084
41	0xbc63daa6	-0.01390711
42	0x3ec7c30f	0.39016005
43	0xbf29778f	-0.66198057
44	0x3e293658	0.16524637
45	0x3f7ff0f9	0.9997707
46	0x3f272dbb	0.65304154
47	0x3e77252a	0.2413527
48	0xbd9d7bfd	-0.076896645
49	0x3da60536	0.08106463
50	0x3ba65879	0.0050764647
51	0xbd29db80	-0.041469097
52	0xbda16299	-0.07880134
53	0xbd52af5e	-0.051436774
54	0xbbdbbd1d	-0.0067058937
55	0xbcbeab45	-0.023275027
56	0x3b6bedd2	0.0035999906
57	0xba48e598	-0.00076636067
58	0xba7df867	-0.0009688199
59	0xbd4bbd69	-0.049741182
60	0xbd8d0222	-0.068851724
61	0xbe060c78	-0.13090694
62	0xbe25c4fb	-0.16188423
63	0xbe473bbb	-0.19456379
64	0xbef9baff	-0.4877548
65	0xbeba3151	-0.3636575
66	0x3c937353	0.017999327
67	0xbe09b355	-0.13447316
68	0xbef076f3	-0.4696575
69	0xbe984d38	-0.29746413
70	0xbd7942d0	-0.060854733
71	0xbf1191a8	-0.5686288
72	0x3d02e9a1	0.031961087
73	0xbc4cf905	-0.012510543
74	0x3e70447a	0.23463622
75	0xbe6d4c08	-0.23173535
76	0xbea1a3c5	-0.3157026
77	0xbe2b760c	-0.1674425
78	0xbe3c6986	-0.18399629
79	0xbcbbc9dd	-0.022923404
80	0xbe15a239	-0.14612664
81	0xbd80c025	-0.06286649
82	0xbc006746	-0.007837122
83	0x3b508dfc	0.003182291
84	0xb9f54719	-0.00046783013
85	0x3a6e9c99	0.00091023144
86	0xbc010971	-0.007875786
87	0xbd2263c4	-0.039645925
88	0x3c9ed578	0.0193889
89	0xbcaa5296	-0.020791333
90	0xbf115d3c	-0.5678289
91	0xbf40df54	-0.7534077
92	0xbf33ee43	-0.70285434
93	0xbf06bec2	-0.52634823
94	0xbe38a78e	-0.18032667
95	0xbe2a800c	-0.16650409
96	0x3e3d2e1e	0.18474624
97	0xbe82f1df	-0.25575158
98	0xbe8d985c	-0.27655303
99	0x3e5dc05c	0.2165541
100	0x3c8d7aff	0.017270563
101	0xbe7eacaf	-0.24870561
102	0xbe104b93	-0.1409133
103	0xbf2c0236	-0.67190874
104	0xbedb3ecf	-0.42821357
105	0xbedc163b	-0.4298571
106	0xbe191443	-0.14949135
107	0xbd88c53d	-0.06678245
108	0xbe0ed355	-0.13947804
109	0xbd9eaec5	-0.077481784
110	0xbd52b068	-0.051437765
111	0xbcf490b2	-0.029854152
112	0x3c14dee4	0.009086344
113	0xbbe5ccc6	-0.0070129363
114	0xbc52d764	-0.012868736
115	0xbcad25f3	-0.02113626
116	0x3df704c7	0.12061458
117	0xbe561cf2	-0.2090948
118	0xbec5693a	-0.38556844
119	0xbf09de5b	-0.5385491
120	0xbe922415	-0.28543153
121	0xbf006bcc	-0.50164485
122	0xbbb99da3	-0.0056645437
123	0xbe0da0cb	-0.13830869
124	0xbca72be9	-0.02040668
125	0x3d434bd4	0.047679737
126	0x3da1c792	0.07899393
127	0x3c33f56e	0.010983808
128	0x3e245d8a	0.16051307
129	0xbe0f5f55	-0.1400121
130	0xbe4bc3fc	-0.19898981
131	0xbe754d46	-0.23955259
132	0xbedd45f7	-0.4321744
133	0xbf02a771	-0.51036745
134	0xbe908f21	-0.282342
135	0xbd6cf27b	-0.057848435
136	0xbc8370e4	-0.016045041
137	0xbd3843f8	-0.044986695
138	0xba9f92e2	-0.0012174512
139	0xbce43b6d	-0.027860368
140	0x3b9b383d	0.0047369287
141	0x3c3f57f2	0.011678683
142	0x3ca8dd57	0.020613356
143	0x3c90e7fa	0.01768874
144	0x3bef547e	0.0073037734
145	0xbe0ce4b8	-0.13759124
146	0xbe630fe7	-0.22174035
147	0xbdcf0cd7	-0.10109871
148	0xbe11adf5	-0.14226516
149	0x3b26a1c9	0.0025426021
150	0x3e976eb6	0.29576653
151	0x3d8ad8c5	0.06779627
152	0xbe463d3e	-0.193593
153	0xbdefb3b8	-0.117042005
154	0x3ec8d298	0.3922317
155	0xbe8c9285	-0.27455536
156	0xbb9ea43c	-0.0048413556
157	0x3dd6cdc2	0.10488464
158	0xbba5968d	-0.0050533474
159	0xbdf4e9b2	-0.11958636
160	0xbe1fac38	-0.1559304
161	0xbe68515e	-0.22687289
162	0xbe827c0a	-0.2548526
163	0xbd73bc24	-0.059505597
164	0x3d4fb4e1	0.05070961
165	0xbd049cff	-0.032376286
166	0xbd214851	-0.039375607
167	0x3c44f374	0.012020934
168	0x3cb35220	0.021889746
169	0xbccbf199	-0.024895476
170	0x3b8de0c5	0.004329773
171	0x3da39c31	0.079887755
172	0x3d33745d	0.043812145
173	0xbdcc3fb7	-0.0997309
174	0x3e15f30b	0.14643495
175	0x3e8d53e3	0.27603063
176	0xbd5f8de9	-0.054578695
177	0x3d8b977b	0.06816002
178	0x3e540eab	0.2070872
179	0x3e4dcfae	0.20098755
180	0x3de2ab08	0.11067778
181	0x3dc211ef	0.09476077
182	0x3917c92e	0.00014475427
183	0x3d010883	0.031502258
184	0x3ed06b6f	0.40706965
185	0x3e1431c8	0.14472115
186	0xbcb91fab	-0.022598108
187	0x3c6faa2d	0.014627975
188	0x3e8ac3c5	0.27102485
189	0x3de0392b	0.10948404
190	0xbe01d9ee	-0.1268079
191	0xbd5b25f1	-0.05350298
192	0xbdfd629f	-0.12372326
193	0x3c8dc709	0.017306821
194	0xbd1aabfc	-0.037761673
195	0x3c0169e6	0.007898783
196	0xbcd26da4	-0.025687046
197	0xbd08a469	-0.03335992
198	0xbc9a6076	-0.018844824
199	0x3e0c507f	0.13702582
200	0x3ded4ee8	0.11587316
201	0xbcc54660	-0.024081409
202	0x3e740832	0.23831251
203	0x3eaa239a	0.33230287
204	0xbd4a82e0	-0.04944122
205	0x3d19da13	0.037561487
206	0x3e0c4dad	0.13701506
207	0x3d82eabd	0.06392429
208	0x3ebddbfd	0.370819
209	0x3e137e71	0.14403702
210	0x3d08b5f7	0.03337666
211	0x3e2fd8ef	0.17172597
212	0x3e38fea4	0.18065888
213	0xbcd162e4	-0.02555985
214	0x3d80ba1a	0.06285496
215	0x3d8318e0	0.06401229
216	0x3c6d028a	0.014465937
217	0x3e4cfd32	0.20018461
218	0xbd648318	-0.055789083
219	0xbaae4484	-0.0013295566
220	0xbd885905	-0.06657604
221	0x3d8c06bc	0.06837222
222	0x3b6c2431	0.0036032314
223	0x3a726a5f	0.0009247418
224	0x3c6aa51c	0.014321592
225	0xbad21132	-0.0016026853
226	0x3c99fe23	0.01879794
227	0x3d9bdf78	0.07610983
228	0x3ded44e3	0.11585405
229	0x3e0cf93a	0.13766947
230	0x3e71e163	0.23621134
231	0x3dfd4fd2	0.1236874
232	0x3d61d14d	0.055131245
233	0x3e1c48ec	0.15262192
234	0x3e6989d2	0.2280648
235	0x3bbc4843	0.005745919
236	0x3e12521a	0.14289132
237	0x3d8c4ea2	0.068509355
238	0x3dcda6b4	0.10041562
239	0x3cba7bd5	0.022764126
240	0x3bf2a212	0.007404574
241	0xbe1096d2	-0.14120033
242	0x3e606dd3	0.21916895
243	0x3d846202	0.06464006
244	0xbecfc930	-0.4058318
245	0x3d984dc7	0.0743671
246	0xbd323f11	-0.043517176
247	0x3db953fa	0.090492204
248	0xbd257fae	-0.040404968
249	0x39ba0be8	0.00035485555
250	0xbd159d81	-0.03652716
251	0xbccd0f4e	-0.025031712
252	0xbb07bf01	-0.0020713212
253	0xbc2f5467	-0.010701275
254	0x3a4400cc	0.00074769254
255	0x3daa93ae	0.08328949

bias f4 [100]
0	0xbf14a92d	-0.5807064
1	0xbe3ca614	-0.18422729
2	0x3f80fe29	1.0077564
3	0x3fc05a58	1.5027571
4	0xbefb6201	-0.4909821
5	0xbf604974	-0.8761208
6	0x3f52e1e7	0.8237595
7	0x3e81265a	0.25224572
8	0x3d8b93d8	0.06815308
9	0x3f4f0802	0.80871594
10	0x3e683ebc	0.22680181
11	0x3f173d52	0.5907794
12	0xbc956450	-0.01823631
13	0x3b24ba5e	0.0025135498
14	0x3f30d7e7	0.6907944
15	0x3f007d51	0.5019122
16	0xbfb5e0c7	-1.4209222
17	0x3db6b92b	0.08922037
18	0xbca53cd7	-0.020170612
19	0xbfae9904	-1.3640447
20	0x3f2f519c	0.684839
21	0xbe83e809	-0.25762966
22	0xbe99b478	-0.300205
23	0x3ea1ff65	0.31640163
24	0x3f845e6f	1.0341319
25	0x3fb0fd14	1.3827233
26	0x3f2f6732	0.6851684
27	0xbd31a08a	-0.043365993
28	0xbe847b0d	-0.2587513
29	0x3d3e0716	0.046393476
30	0x3eeed132	0.46643978
31	0xbd32d2a6	-0.04365792
32	0xbfa61a47	-1.2976769
33	0xbc853567	-0.016260816
34	0xbfd41093	-1.6567558
35	0x3e802f0c	0.25035894
36	0x3eaba9db	0.33528027
37	0x3f6c248c	0.92243266
38	0x3ee7cb28	0.45272183
39	0xbd83e8ba	-0.064408734
40	0xbe3e98be	-0.18612954
41	0x3e5e07c5	0.21682651
42	0x3f313f8a	0.6923758
43	0xbf2f875b	-0.6856591
44	0x3f3b9dbd	0.73287565
45	0xbf1e2d99	-0.61788327
46	0x3f9df0d1	1.2339116
47	0xbdb291b3	-0.08719196
48	0x3ea1fc2a	0.31637698
49	0xbe2ee2ce	-0.17078707
50	0x3e2b3647	0.16719924
51	0x3e8bf974	0.27338755
52	0x3f441b62	0.7660428
53	0x3eb8fb18	0.3612907
54	0x3e218971	0.15775086
55	0x3f468642	0.7754861
56	0x3c94ef83	0.018180614
57	0x3d836394	0.064154774
58	0xbf51069f	-0.8165073
59	0xbd2f3601	-0.04277611
60	0xc0050f70	-2.0790672
61	0x3d17bd9d	0.037046064
62	0x3dd70e7b	0.10500809
63	0xbdba68a1	-0.09101988
64	0x3e019d3e	0.1265764
65	0xbf8ffe11	-1.124941
66	0x3f27bb64	0.6552031
67	0x3f1722be	0.5903739
68	0xbf4724e3	-0.7779066
69	0xbccf2ac1	-0.025288941
70	0xbe0796e8	-0.1324116
71	0xbd685b67	-0.056727793
72	0x3f610b54	0.8790791
73	0x3f3cdb21	0.73771864
74	0xbcf2f338	-0.029656991
75	0x3f88d745	1.0690695
76	0x3e6194a8	0.22029364
77	0xbed45dac	-0.41477716
78	0x3f4aaa17	0.79165787
79	0x3c062d11	0.008189456
80	0x3f316e81	0.6930924
81	0x3d2b6d94	0.04185255
82	0xbf624eaa	-0.8840128
83	0xbd83f3f1	-0.064430125
84	0x3e174932	0.14774016
85	0xbf5cd5aa	-0.86263525
86	0xbde6f999	-0.11278076
87	0x3e7d24f6	0.2472113
88	0x3c4ef9fe	0.012632845
89	0x3d2890c2	0.041153677
90	0x3edee7f8	0.43536353
91	0x3fa339d9	1.2752029
92	0x3cb7862c	0.022402845
93	0x3eb2c123	0.34912977
94	0xbf49f2cf	-0.7888612
95	0xbf8a2f48	-1.0795679
96	0x3e85b91c	0.2611779
97	0xbeead48b	-0.45865282
98	0x3f3c530f	0.7356424
99	0xbf7bbde2	-0.98336613

weight f4 [100, 100]
0	0x3ccc38c6	0.024929415
1	0x3eb0692c	0.3445524
2	0x3e6a42d2	0.22877052
3	0xbecc4381	-0.3989525
4	0xbe99c649	-0.30034092
5	0xbe88d2f0	-0.26723433
6	0xbe5dc126	-0.21655712
7	0x3ca553d7	0.02018158
8	0x3d9ba0aa	0.075990036
9	0xbb792ee8	-0.0038022343
10	0x3eea3a6f	0.45747706
11	0x3d860129	0.0654319
12	0xbcb131fc	-0.02163028
13	0xbe9a429f	-0.30128953
14	0x3ed6641b	0.4187325
15	0xbe28d809	-0.16488661
16	0x3e169829	0.14706482
17	0x3e8b5d3a	0.27219564
18	0xbc17262a	-0.009225408
19	0x3cca593a	0.02470075
20	0x3db858b5	0.090012945
21	0xbe4a9818	-0.19784582
22	0xbe086b7c	-0.13322252
23	0x3e4a88cf	0.19778751
24	0x3d62c8f9	0.055367444
25	0x3ea99a8e	0.33125728
26	0xbe2901c6	-0.16504583
27	0xbe472d57	-0.1945089
28	0xbee13a9b	-0.43990025
29	0x3b9b44d4	0.0047384296
30	0xbe32e5ea	-0.17470518
31	0xbeb8e333	-0.3611084
32	0xbe4816b2	-0.19539908
33	0xbd9507a3	-0.07276847
34	0xbf3521d5	-0.7075475
35	0x3ec6194b	0.38691172
36	0x3cc884a7	0.024477316
37	0xbee8c5c3	-0.4546338
38	0x3df90b9c	0.121604174
39	0x3ccef24e	0.025262024
40	0xbe0670a7	-0.13128911
41	0x3e1ce053	0.15319948
42	0x3d827df0	0.06371677
43	0x3e665fc4	0.22497469
44	0xbe256509	-0.16151823
45	0x3e02c868	0.12771761
46	0xbec0104c	-0.37512434
47	0xbf118b16	-0.56852853
48	0x3ccdaa1c	0.025105529
49	0xbdf2f7f7	-0.11863702
50	0xbd789839	-0.060692046
51	0xbe219faa	-0.15783563
52	0x3dc958ca	0.09831388
53	0xbe335a7a	-0.17514983
54	0xbf135e96	-0.575662
55	0x3e1ecb6a	0.15507284
56	0xbdc3a0c5	-0.09552149
57	0x3ec5a87f	0.38605115
58	0x3d39d9d1	0.04537374
59	0x3c73225f	0.014839738
60	0x3e6254fd	0.22102733
61	0xbdefdf6f	-0.117125385
62	0xbe45cd8d	-0.19316693
63	0xbca086a4	-0.019595452
64	0xbe25c939	-0.16190042
65	0xbe1445f8	-0.14479816
66	0xbe80d278	-0.25160575
67	0x3dfe7a4a	0.124256685
68	0xbe93868d	-0.28813592
69	0xbcc5f8c3	-0.02416647
70	0xbd04ce20	-0.03242314
71	0x3e56dbf9	0.2098235
72	0x3cd46058	0.025924847
73	0xbd858839	-0.06520123
74	0x3c485dfd	0.01222944
75	0x3f0840fb	0.5322415
76	0xbe1fc915	-0.1560405
77	0xbe1b8a07	-0.15189372
78	0xbe2174d8	-0.15767229
79	0x3d9d81dd	0.07690785
80	0xbcfdc7c5	-0.030979047
81	0x3d0a9135	0.033829886
82	0xbe28cdab	-0.16484706
83	0x3e46df93	0.19421224
84	0x3d69af08	0.05705169
85	0x3cd36679	0.025805699
86	0xbe270264	-0.16309506
87	0xbd6b7858	-0.057487816
88	0xbbbc7ed0	-0.005752422
89	0x3c65269d	0.013986257
90	0x3cff082a	0.031131823
91	0xbd9c2d08	-0.076257765
92	0xbe00f882	-0.12594798
93	0x3e1182cc	0.14210051
94	0x3c019642	0.007909359
95	0xbee460b7	-0.44605038
96	0xbe0c0ab0	-0.13675952
97	0x3d7fffca	0.0624998
98	0x3c10fe2d	0.008849663
99	0x3c342114	0.010994215
100	0x3df89078	0.1213693
101	0x3ed30be9	0.41220024
102	0xbd97d6f5	-0.07414047
103	0xbe042d35	-0.1290787
104	0xbeb5427f	-0.35402295
105	0xbeb1c018	-0.34716868
106	0xbcf16703	-0.029468065
107	0xbe33ac33	-0.17546158
108	0xbdc62542	-0.09675075
109	0x3e6ddbaf	0.23228334
110	0x39b89329	0.00035204858
111	0x3e2d9faa	0.16955438
112	0x3b50f603	0.0031884916
113	0x3dfbfd31	0.12304152
114	0x3f097c3d	0.537052
115	0x3e81f574	0.25382578
116	0x3dddf1c9	0.108371325
117	0xbe090280	-0.1337986
118	0xbe8600c5	-0.26172462
119	0xbee048f2	-0.43805653
120	0xbe20380c	-0.1564638
121	0xbead5486	-0.3385355
122	0xbe6f9028	-0.23394835
123	0xbe72a0cd	-0.23694153
124	0x3d57cd99	0.052686308
125	0x3f13dd9d	0.5776003
126	0xbe9af99d	-0.30268565
127	0xbe95ba9a	-0.29243928
128	0xbe8848d6	-0.2661807
129	0xbdc4b843	-0.09605458
130	0xbe955976	-0.29169816
131	0x3d5807f3	0.052741956
132	0xbe77974e	-0.24178812
133	0x3d88ef71	0.06686295
134	0x3e138bc1	0.1440878
135	0xbd7a8956	-0.06116613
136	0x3df43192	0.11923517
137	0x3f390096	0.7226652
138	0xbde9f687	-0.114239745
139	0x3dd60005	0.104492225
140	0xbe95c5e9	-0.29252556
141	0xbd5ecb39	-0.054393027
142	0xbe38991e	-0.1802716
143	0xbe9f88f5	-0.31159177
144	0x3ecd9d4a	0.40159065
145	0x3f028f7c	0.5100019
146	0xbec8e550	-0.39237452
147	0x3e234772	0.15945223
148	0x3e17ae5f	0.14812611
149	0xbe3a36b7	-0.18184935
150	0x3e0315fc	0.12801355
151	0xbeb2c34b	-0.34914622
152	0x3db86a21	0.090046175
153	0xbf08f27e	-0.53495014
154	0x3d157e24	0.03649725
155	0xbe0d9402	-0.13825992
156	0xbd225875	-0.03963514
157	0xbe9942fb	-0.29933915
158	0xbe496ef6	-0.19671234
159	0x3d080506	0.033207916
160	0xbf4801f1	-0.7812796
161	0xbdc5fcea	-0.0966738
162	0x3e5bbc71	0.21458603
163	0xbf03547c	-0.5130079
164	0xbea1358a	-0.3148616
165	0x3eb21232	0.34779507
166	0x3d98f2b7	0.07468169
167	0xbe913861	-0.28363326
168	0xbeddc9d8	-0.43318057
169	0xbdb85691	-0.09000886
170	0x3f1687fa	0.58801234
171	0xbe0f78df	-0.14010952
172	0xbf0c9761	-0.54918486
173	0x3d5080ad	0.050903965
174	0x3dd1f53a	0.102518514
175	0x3cf653de	0.030069288
176	0x3d7ee3c4	0.062228933
177	0xbd950dbe	-0.07278012
178	0x3e2db8c6	0.16965017
179	0xbd90bf00	-0.0706768
180	0x3da30249	0.0795942
181	0xbe9b4aa5	-0.30330387
182	0xbec39351	-0.3819833
183	0xbe2cfd93	-0.16893606
184	0xbc4790e3	-0.01218054
185	0xbe5fb26e	-0.2184541
186	0x3e142e96	0.14470896
187	0x3e964914	0.2935263
188	0xbcdb54d3	-0.026773846
189	0x3d973a2b	0.073841415
190	0x3df5215f	0.11969256
191	0x3f174e95	0.5910428
192	0xbdb5e866	-0.08882217
193	0xbeddb7ff	-0.4330444
194	0xbe839534	-0.2569977
195	0x3dcae8dd	0.099076964
196	0x3d858ecb	0.06521376
197	0x3e19c8f9	0.15018071
198	0x3e842512	0.25809532
199	0xbe137e2e	-0.14403602
200	0x3dc97454	0.09836641
201	0xbe17925e	-0.14801928
202	0xbd79c3e8	-0.060977846
203	0xbd6c4192	-0.05767972
204	0xbeaea214	-0.3410803
205	0x3e44acf8	0.19206607
206	0x3c679f20	0.014137059
207	0x3e9767ed	0.29571477
208	0x3d6c9981	0.05776358
209	0xbe4b0540	-0.19826221
210	0x3d026f9f	0.03184473
211	0xbe072faa	-0.13201776
212	0xbdbfc793	-0.09364238
213	0xbe7ed503	-0.24885945
214	0xbd9dc4df	-0.07703566
215	0xbd316835	-0.04331227
216	0xbe613152	-0.2199147
217	0x3c7d9862	0.015478225
218	0x3e8b9111	0.27259114
219	0x3ec79029	0.38977173
220	0xbd928041	-0.07153369
221	0xbd99f728	-0.075178444
222	0xbe80ac69	-0.2513154
223	0x3d69e3d0	0.057102025
224	0xbd12b725	-0.03581919
225	0xbe07dd39	-0.13267983
226	0xbda86f80	-0.08224392
227	0xbe3c7ff5	-0.18408187
228	0x3e373ead	0.17895003
229	0xbb9da39f	-0.004810765
230	0x3dfe3d8e	0.124140844
231	0xbedbebf4	-0.42953455
232	0xbdeb778b	-0.114974104
233	0x3dc59295	0.09647099
234	0x3ea37557	0.3192546
235	0x3bb52505	0.0055280947
236	0xbe2a4727	-0.16628705
237	0xbe7929e8	-0.24332392
238	0xbd15d64e	-0.03658133
239	0xbda55b78	-0.08074087
240	0xbda92490	-0.08258927
241	0xbd661bee	-0.05617898
242	0xbdb81d9b	-0.08990022
243	0xbecbf383	-0.39834222
244	0x3d25a5a8	0.040441185
245	0x3dc4911c	0.0959799
246	0x3c02bf49	0.007980176
247	0x3d5e7b11	0.054316584
248	0xbd1065ed	-0.035253454
249	0xb913701b	-0.00014060775
250	0x3ce5d6b0	0.028056473
251	0x3b2e82cf	0.002662826
252	0x3de6a011	0.11260999
253	0x3d5babca	0.053630628
254	0xbe049bb9	-0.12950028
255	0xbe7f7769	-0.24947895

bias f4 [100]
0	0x3f7bcfe3	0.98364085
1	0x3ef6e8d5	0.48224512
2	0xbdb7b4f3	-0.0897006
3	0x3eeea973	0.46613654
4	0xbeb1ed06	-0.34751147
5	0x3f1c6a25	0.61099464
6	0x3f7666bf	0.9625053
7	0xbe63ac68	-0.22233737
8	0x3ec6ea7c	0.38850772
9	0x3f212839	0.62952
10	0x3e9fc2a8	0.31203198
11	0xbe5ebbd1	-0.21751334
12	0x3eec92be	0.46205705
13	0x3eb95152	0.36194855
14	0x3e96cf4a	0.29455024
15	0x3e128278	0.14307582
16	0x3e6b40fc	0.22974008
17	0x3ec9b746	0.3939764
18	0x3e33de6e	0.17565319
19	0x3ef00055	0.46875253
20	0xbf8815c4	-1.0631642
21	0x3f048b20	0.5177479
22	0xbdef15b1	-0.11674059
23	0x3dbd22a0	0.0923512
24	0x3ea3415d	0.31885806
25	0x3eb92b1d	0.36165705
26	0x3f14a8eb	0.5807025
27	0x3d64bb15	0.055842478
28	0x3f1254c4	0.5716059
29	0x3e99b5dc	0.3002156
30	0x3f4ba2e5	0.7954543
31	0xbe086d5f	-0.13322972
32	0x3e3896bb	0.18026249
33	0x3c01b6c6	0.007917112
34	0x3f4b0552	0.79304993
35	0x3f784373	0.9697792
36	0x3ec9f1c9	0.3944228
37	0x3c7e90d7	0.015537462
38	0x3e2a30e2	0.1662021
39	0x3f26b02a	0.65112555
40	0x3f074bfb	0.5285031
41	0x3ef6120a	0.48060638
42	0x3f07c83b	0.530399
43	0x3f610ca2	0.879099
44	0xbe027bdf	-0.12742566
45	0x3f418900	0.7559967
46	0x3f8f76fb	1.1208185
47	0x3ef1ccb4	0.4722649
48	0x3f23ee0b	0.640351
49	0xbeb30632	-0.34965664
50	0x3f02c249	0.51077706
51	0xbe5211d5	-0.20514615
52	0xbe79b096	-0.24383768
53	0x3e10b17c	0.14130205
54	0x3e9b1ef2	0.30297047
55	0x3bc1670c	0.0059021767
56	0xbe91e8ad	-0.2849783
57	0x3f8adf9a	1.0849488
58	0xbe4e0fe1	-0.20123245
59	0x3e986e4d	0.29771653
60	0x3ebcdadf	0.36885735
61	0x3f0f52e2	0.55985844
62	0x3f1d12e0	0.61356926
63	0xbc7c2440	-0.015389502
64	0x3e85889c	0.26080787
65	0x3f186cd6	0.5954107
66	0x3e2eaf4d	0.1705906
67	0x3f04a8eb	0.5182025
68	0x3e01fe53	0.12694673
69	0xbd14c802	-0.036323555
70	0xbece42c8	-0.40285325
71	0x3f0eb469	0.55744034
72	0x3ec6678f	0.38750884
73	0xbe06147b	-0.1309375
74	0x3f155cf9	0.5834499
75	0xbeb428ba	-0.35187322
76	0x3ec90b0a	0.39266235
77	0x3ed997c0	0.4249859
78	0x3d4f62f2	0.05063147
79	0x3f4193f0	0.7561636
80	0xbea60285	-0.32423797
81	0x3e1e8c46	0.15483198
82	0xbf150a29	-0.5821863
83	0x3f0e1e1e	0.55514705
84	0x3ec6b4e9	0.38809898
85	0xbe9b86f5	-0.30376402
86	0xbe1ef2a5	-0.15522249
87	0xbd72a426	-0.059238575
88	0x3d926166	0.071474835
89	0xbc2baeda	-0.0104787
90	0x3ec263ab	0.37966666
91	0x3ecbc667	0.39799806
92	0x3e7f58b2	0.24936178
93	0x3e7253d9	0.23664798
94	0xbe1b13ba	-0.15144244
95	0x3d2a221e	0.041536443
96	0x3e91ce02	0.28477484
97	0x3d6dad1c	0.058026418
98	0x3e18c8f8	0.14920413
99	0xbe367db2	-0.17821386

weight f4 [10, 100]
0	0x3ea6815a	0.32520562
1	0x3eba3b49	0.36373356
2	0x3e5654ca	0.20930782
3	0xbf267767	-0.65025944
4	0xbe826ca0	-0.254735
5	0x3f0a9f32	0.5414916
6	0x3f1469c5	0.5797389
7	0xbe957ca5	-0.2919666
8	0x3d7476dc	0.059683666
9	0xbdfd62bb	-0.12372347
10	0x3f4d645c	0.8023126
11	0x3e3677fb	0.17819206
12	0xbea4ab20	-0.32161808
13	0xbf063a31	-0.52432543
14	0x3ee30c45	0.44345298
15	0xbf765949	-0.9622999
16	0xbeefb1d8	-0.46815372
17	0xbd97841f	-0.07398247
18	0x3eda3e22	0.4262553
19	0xbe201e4c	-0.15636557
20	0x3eb65d3b	0.35618004
21	0x3f0c012d	0.54689294
22	0x3d3b25f6	0.0456905
23	0xbe1b4fbe	-0.15167138
24	0x3f18a19c	0.59621596
25	0x3ef00e3d	0.46885863
26	0x3ea02e0d	0.31285134
27	0x3ec2120b	0.3790439
28	0x3eba614d	0.3640236
29	0x3f11a6e8	0.56895304
30	0x3e392131	0.18079068
31	0x3e7319b5	0.23740275
32	0x3ba02cc1	0.0048881476
33	0xbd5d512e	-0.054032497
34	0x3ed4bea9	0.41551712
35	0x3df74b0e	0.120748624
36	0xbecd60f0	-0.4011302
37	0xbdf99863	-0.121872686
38	0xbf34b6fc	-0.7059171
39	0xbf23fb34	-0.6405518
40	0x3d004834	0.03131886
41	0xbd886f46	-0.06661849
42	0xbc115bf1	-0.008872018
43	0x3e0f9aea	0.14023939
44	0xbdfa1606	-0.12211232
45	0xbd957a62	-0.07298733
46	0xbe40468e	-0.18776914
47	0x3f3657eb	0.712279
48	0xbe8efc7c	-0.27927005
49	0x3eda69e4	0.42658913
50	0x3f053216	0.5202955
51	0x3e755625	0.23958643
52	0x3ec0d3f8	0.3766172
53	0x3f2a43ec	0.6650989
54	0xbe1cbb12	-0.15305737
55	0x3dfe7f2e	0.12426601
56	0x3eeb917c	0.46009433
57	0x3f254079	0.645515
58	0xbe2bda74	-0.16782552
59	0x3d3c825b	0.046022754
60	0xbd0bc0b0	-0.034119308
61	0xbf2edf94	-0.68309903
62	0xbe8bbdfa	-0.27293378
63	0xbe40481b	-0.18777506
64	0xbe5bc1a4	-0.21460587
65	0xbed5c1ce	-0.41749424
66	0x3e963bec	0.29342592
67	0x3f168eb7	0.58811516
68	0xbe8c535d	-0.2740735
69	0x3e603f29	0.21899094
70	0xbec08ead	-0.37608853
71	0x3f2a97d2	0.6663791
72	0x3ee5d273	0.44887123
73	0x3f079dd3	0.52975196
74	0x3ea1590f	0.3151326
75	0xbeb943c0	-0.36184502
76	0x3f24fc61	0.644476
77	0x3cbb0bc0	0.022832751
78	0xbe3899f9	-0.18027486
79	0xbe76a647	-0.24086867
80	0xbe4489ef	-0.19193242
81	0xbf1b1771	-0.60582644
82	0x3e5901f0	0.21192145
83	0x3e95037d	0.29104224
84	0xbe415ce4	-0.18883091
85	0x3dcfe8e0	0.10151839
86	0x3e1db0c8	0.15399468
87	0x3ebca1ec	0.36842287
88	0xbe13c97d	-0.1443233
89	0xbef49efb	-0.47777542
90	0x3f37de7f	0.7182388
91	0x3d67fc6f	0.056637224
92	0xbde9b3b4	-0.11411229
93	0x3c228280	0.009918809
94	0xbe16a81c	-0.14712566
95	0x3e4cc766	0.1999794
96	0x3d56b604	0.052419677
97	0xbe45d1d7	-0.19318329
98	0xbef2319f	-0.47303483
99	0xbec714da	-0.38883096
100	0xbf28cd69	-0.6593843
101	0x3ecad9c6	0.39619273
102	0xbdf7db2d	-0.12102351
103	0xbe5ad721	-0.21371128
104	0xbeb0e2d4	-0.34548056
105	0x3e1b15c5	0.15145023
106	0x3e57f815	0.2109073
107	0x3eaced88	0.33774972
108	0xbd88dc96	-0.066826984
109	0xbf0c08cb	-0.54700917
110	0xbe2df888	-0.16989338
111	0xbcf2f2d5	-0.029656807
112	0x3f061591	0.5237666
113	0xbe4bb436	-0.19892964
114	0xbe2e035c	-0.16993469
115	0xbf11b178	-0.5691142
116	0xbe9835e8	-0.29728627
117	0xbe978434	-0.2959305
118	0xbe8db436	-0.27676553
119	0x3ed41f1b	0.41429982
120	0xbeac669c	-0.33672035
121	0xbf3af885	-0.7303546
122	0xbee50b40	-0.44735146
123	0x3f5171b3	0.81814116
124	0x3e94f530	0.29093313
125	0x3ea71055	0.32629648
126	0xbefc92e0	-0.49330807
127	0x3dbce671	0.09223641
128	0x3db6c2cd	0.08923874
129	0x3eae95e6	0.34098738
130	0xbf1c0d19	-0.60957485
131	0xbedee61d	-0.43534938
132	0xbb914d7d	-0.004434286
133	0xbd43d039	-0.047806
134	0x3eb72d38	0.35776687
135	0x3d4b107f	0.04957628
136	0xbe940e42	-0.28917128
137	0xbe9e8365	-0.3095962
138	0x3f27f3af	0.65606207
139	0x3e317dcb	0.17333142
140	0xbf117de9	-0.5683275
141	0x3e0e64c8	0.13905632
142	0x3d23db07	0.040003803
143	0xbecbb075	-0.39783064
144	0x3e2e3441	0.17012121
145	0x3ef4e5e5	0.47831646
146	0xbea52fc2	-0.32263
147	0x3d90de93	0.07073703
148	0xbead6a9d	-0.33870402
149	0xbe2aa21e	-0.16663405
150	0xbeeb8f7b	-0.46007904
151	0xbe7d277e	-0.24722096
152	0x3ca0745b	0.019586733
153	0x3f0ecf37	0.55784935
154	0xbe860328	-0.26174283
155	0x3ee3ae37	0.44468853
156	0xbe99999a	-0.3
157	0xbebc03b3	-0.36721572
158	0x3f2956a2	0.66147816
159	0xbf015ea7	-0.50535053
160	0x3cb4b2aa	0.02205785
161	0x3f8717bd	1.0554119
162	0x3ef4fcb9	0.47849062
163	0x3f1d54c1	0.6145745
164	0xbc2c5bef	-0.010519966
165	0xbeda2a7c	-0.42610538
166	0x3e2846ac	0.16433209
167	0xbecb8dc3	-0.39756593
168	0xbf0f2a7a	-0.5592419
169	0xbe2d9ff9	-0.16955556
170	0x3e49425e	0.19654223
171	0xbf1745c3	-0.5909082
172	0xbf00272f	-0.5005979
173	0x3cace2f1	0.021104308
174	0xbf0a75ad	-0.5408581
175	0xbd1934c7	-0.037403848
176	0xbdcad434	-0.09903756
177	0xbe55f239	-0.20893182
178	0xbf19d189	-0.6008535
179	0xbd1942db	-0.037417274
180	0x3f63a952	0.8893024
181	0xbe29cb16	-0.16581377
182	0xbecb8f99	-0.39757994
183	0xbe2aa2e6	-0.16663703
184	0x3f039712	0.5140239
185	0xbe1b0fc3	-0.15142731
186	0x3dbfaa7a	0.09358688
187	0x3e609ea7	0.21935521
188	0xbe14bec4	-0.14525896
189	0x3ee8b913	0.454537
190	0xbf1d5c4f	-0.61468977
191	0xbf09deb7	-0.5385546
192	0x3e3acb5a	0.18241635
193	0x3f34a69d	0.7056673
194	0x3db7bf72	0.08972062
195	0x3f691a26	0.91055524
196	0x3e45b80b	0.19308488
197	0xbd6ca523	-0.057774674
198	0xbe8b7016	-0.27233952
199	0x3dfb9eec	0.12286171
200	0x3f419f43	0.7563364
201	0x3e8bc820	0.2730112
202	0x3e886296	0.26637715
203	0x388c663b	6.694762e-05
204	0x3ecffe87	0.40623876
205	0xbeccf3a5	-0.40029636
206	0x3f285998	0.6576171
207	0xbe43571d	-0.190762
208	0xbf044503	-0.51667804
209	0xbe128d66	-0.14311752
210	0xbe0626c1	-0.13100721
211	0x3eebe751	0.46074918
212	0xbe469f3d	-0.19396682
213	0x3f520e91	0.82053477
214	0x3eeeac2f	0.4661574
215	0x3ea2df27	0.31810877
216	0xbf1bd802	-0.60876477
217	0xbd839f42	-0.064268604
218	0xbf1a8a2e	-0.60367095
219	0xbe803920	-0.25043583
220	0x3ea32abd	0.31868544
221	0x3f40bc86	0.75287664
222	0xbf046a76	-0.51724946
223	0x3ece0c95	0.40243974
224	0x3eae4855	0.3403956
225	0x3f178e0d	0.5920113
226	0xbe25686e	-0.16153118
227	0xbe3f61ca	-0.18689647
228	0x3e4e8a1f	0.20169877
229	0xbed1f127	-0.41004297
230	0x3f4f440c	0.80963206
231	0x3e9c3345	0.30507866
232	0x3ec6c1e1	0.38819793
233	0xbebb7160	-0.36609936
234	0xbeb3cf16	-0.35118932
235	0xbf16321e	-0.5867022
236	0xbf210f4a	-0.62913954
237	0xbd74419b	-0.05963288
238	0xbf031281	-0.5120011
239	0x3e2d7987	0.1694089
240	0xbf657d9a	-0.8964478
241	0x3f2e5380	0.6809616
242	0xbc131dbe	-0.008979259
243	0xbe5ed4f5	-0.21760924
244	0x3eba49ac	0.36384332
245	0xbe393a58	-0.18088663
246	0x3eec7514	0.46183074
247	0xbf21ed7c	-0.63253
248	0xbe3532fb	-0.17695229
249	0xbed6a621	-0.4192362
250	0xbeab856f	-0.3350024
251	0x3e084d73	0.13310795
252	0xbeac6b55	-0.33675638
253	0xbf3314bc	-0.69953513
254	0xbc33e1bc	-0.010979112
255	0x3ed194e4	0.40933907

bias f4 [10]
0	0x3dc4b01a	0.09603901
1	0xbf468365	-0.7754424
2	0x3f1b560f	0.6067819
3	0x3f484536	0.7823061
4	0x3ebce448	0.36892915
5	0xbe75c336	-0.24000248
6	0x3f25ed1d	0.6481493
7	0xbe61a537	-0.2203568
8	0xbdfa6285	-0.12225822
9	0xbf87b4d9	-1.0602065
